dqn_checkpoint_v.pth (torch, 311583 bytes, 6 tensors)

fc1.weight f4 [256, 34]
0.21646279 -0.10729233 0.1906496 -0.087228775 0.08315166 0.08105429 0.17813343 0.17499296
0.16233708 0.25058416 -0.036179263 0.19235693 -0.16015236 -0.1462213 0.06755378 0.34293917
0.14160454 0.2533156 0.27651092 0.15487996 0.13760121 -0.062188793 0.20361261 0.13179459
-0.46732563 0.13578652 0.27095795 0.26329416 -0.1537379 0.04190273 0.19603702 0.15331829
0.1563161 0.10336127 0.01443322 -0.09012638 0.075158976 -0.18100289 0.023554893 -0.002958464
0.17220473 0.10430886 0.24986199 0.3691717 0.009560182 0.20317395 -0.14022666 -0.23281495
-0.24762525 -0.16110505 0.12841767 -0.1005788 -0.028030628 -0.3227741 -0.07449131 0.07661403
-0.031255223 -0.115603805 -0.36360046 -0.04311477 -0.02598595 0.18656759 0.2381106 -0.11120071
-0.16808583 -0.104582 0.09642299 -0.12119365 0.14400038 -0.19101177 0.10639993 -0.063942224
-0.24427336 0.15076622 0.3059165 -0.021140708 -0.0038023042 -0.06070445 -0.14180927 0.088572666
-0.57539636 -0.2383505 -0.011062148 0.30265778 0.039335035 0.07032784 0.24586584 0.38858333
0.005439865 0.012794329 0.19829205 -0.009477719 -0.232446 0.14156266 0.061961256 0.26925674
-0.43242165 0.2691212 0.050404985 0.08033789 0.16474728 0.025811192 0.14974068 0.010455945
0.24426511 -0.16855584 0.012639419 -0.076782696 -0.071589105 0.17868604 -0.06542846 0.3529536
-0.19595431 -0.12202452 -0.003781111 -0.118805006 0.26502615 0.21772322 0.21861075 0.11080271
0.22220069 0.12938188 0.014870548 0.24906676 0.29482806 0.33785182 -0.11127748 0.27303672
0.18291171 0.15124847 0.081492 0.20655629 0.12216769 0.014567621 -0.05690757 0.17425972
-0.001095326 0.018256443 -0.09090785 -0.13779336 0.28548726 0.030122671 0.14138067 0.1367244
0.19195004 0.12476707 0.16771828 -0.0071368976 0.30789676 0.07289213 -0.09423268 -0.049935423
-0.17088872 -0.09148769 -0.13995074 -0.11441049 0.1943576 -0.21396668 -0.29101762 -0.06033957
-0.19790058 0.0082986625 -0.29163665 0.22228757 0.09040507 0.013987805 -0.10582096 -0.014336694
0.084310666 0.14012355 0.28444454 -0.015942778 0.36442122 -0.19168378 -0.0158314 0.19079158
0.03620136 0.06809019 -0.19606777 0.28733557 0.13045512 0.1818982 -0.20560096 0.1788768
0.18585129 0.1901254 0.13815849 0.008947613 0.26641583 0.2836866 0.18239945 0.2567071
0.30195907 0.123463064 0.14446872 0.21884646 0.102530845 -0.024272582 0.05607311 0.22375879
0.09824786 0.21150155 -0.014931233 0.14421302 0.13847554 -0.0033923094 -0.09576952 0.03187962
0.01623978 -0.07697276 0.08203509 0.042754743 0.054561343 -0.13909191 -0.2424155 -0.020216234
0.19686101 0.1221233 -0.0919316 -0.021387026 0.14520645 -0.117133796 0.21498525 0.046302583
0.10939196 -0.17673706 0.04157642 -0.09740996 -0.00077595736 0.0052330983 -0.019375347 0.116054624
-0.15359852 -0.23740815 -0.08317476 -0.2463448 0.0794189 0.050656673 -0.15213273 0.14496133
0.09508282 0.09716857 0.008681024 0.01829783 0.05085735 -0.073665574 -0.19713283 0.14673875
0.3014578 0.0435223 0.26104826 -0.011089834 -0.0026301073 -0.14126816 -0.12955862 0.16220626
00000000: 6ca8 5d3e 15bc dbbd a639 433e 00a5 b2bd
00000010: 6b4b aa3d cbff a53d 9c68 363e 5b31 333e
00000020: b13b 263e 914c 803e b530 14bd 37f9 443e
00000030: fbfe 23be 09bb 15be a359 8a3d b995 af3e
00000040: c800 113e 95b2 813e d792 8d3e da98 1e3e
00000050: 55e7 0c3e adb9 7ebd d37f 503e 29f5 063e
00000060: 4e45 efbe 9f0b 0b3e 00bb 8a3e 7ece 863e
00000070: 786d 1dbe 32a2 2b3d eebd 483e 78ff 1c3e
00000080: 5411 203e 13af d33d 5079 6c3c 2e94 b8bd
00000090: f3ec 993d d258 39be 31f6 c03c cae2 41bb
000000a0: 7056 303e e29f d53d d2db 7f3e 1304 bd3e
000000b0: 4fa2 1c3c d50c 503e 9497 0fbe 0b67 6ebe
000000c0: 7991 7dbe b9f8 24be ec7f 033e 42fc cdbd
000000d0: 7da0 e5bc a642 a5be e68e 98bd d1e7 9c3d
000000e0: 7a05 00bd b0c1 ecbd d729 babe 1d99 30bd
000000f0: 7de0 d4bc 930b 3f3e 44d3 733e 33bd e3bd
00000100: b11e 2cbe 162f d6bd 6b79 c53d 6034 f8bd
00000110: d674 133e 9798 43be 35e8 d93d 24f4 82bd
00000120: cc22 7abe 7662 1a3e 16a1 9c3e 472f adbc
00000130: 1430 79bb 3ba5 78bd 7336 11be 9665 b53d
00000140: 2d4d 13bf 2712 74be 033e 35bc f6f5 9a3e
00000150: c61d 213d 0b08 903d 41c4 7b3e 65f4 c63e
00000160: e540 b23b 4e9f 513c 120d 4b3e 6f48 1bbc
00000170: 5306 6ebe cdf5 103e 16cb 7d3d 05dc 893e
00000180: 5f66 ddbe 41ca 893e 7575 4e3d 3188 a43d
00000190: 83b3 283e fe71 d33c 9f55 193e 694f 2b3c
000001a0: a220 7a3e e799 2cbe 9115 4f3c 3f40 9dbd
000001b0: 4f9d 92bd 79f9 363e 5bff 85bd 56b6 b43e
000001c0: 3fa8 48be fee7 f9bd 84cc 77bb 0a50 f3bd
000001d0: 82b1 873e d6f2 5e3e 7fdb 5f3e 88ec e23d
000001e0: 9488 633e af7c 043e 99a3 733c 5b0b 7f3e
000001f0: b4f3 963e eafa ac3e 73e5 e3bd 78cb 8b3e
00000200: 354d 3b3e e1e0 1a3e 47e5 a63d 7e83 533e
00000210: 0e33 fa3d 08ad 6e3c ea17 69bd 2471 323e
00000220: 0b91 8fba 898e 953c e52d babd b419 0dbe
00000230: 632b 923e d2c3 f63c 18c6 103e 7b01 0c3e
00000240: 8d8e 443e e185 ff3d 57be 2b3e a3dc e9bb
00000250: a5a4 9d3e 7848 953d 10fd c0bd 1689 4cbd
00000260: 74fd 2ebe e65d bbbd 3f4f 0fbe 0c50 eabd
00000270: ae05 473e 151a 5bbe 4300 95be a026 77bd
00000280: 73a6 4abe 1df7 073c 6651 95be 5a9f 633e
00000290: 4b26 b93d 1b2d 653c a9b8 d8bd 74e4 6abc
000002a0: 12ab ac3d 8c7c 0f3e b7a2 913e 6e9a 82bc
000002b0: 6b95 ba3e c148 44be dab0 81bc de5e 433e
000002c0: e147 143d df72 8b3d fdc5 48be a61d 933e
000002d0: 0796 053e 8643 3a3e 0f89 52be 7b2b 373e
000002e0: cd4f 3e3e 3cb0 423e 6b79 0d3e 0299 123c
000002f0: a867 883e 5f3f 913e ecc6 3a3e 1d6f 833e
00000300: 619a 9a3e 34da fc3d 9cef 133e 4919 603e
00000310: b1fb d13d 4bd7 c6bc ebac 653d 0621 653e
00000320: 2d36 c93d dd93 583e 21a2 74bc 94ac 133e
00000330: 88cc 0d3e 8251 5ebb cf22 c4bd 3494 023d
00000340: 4909 853c e5a3 9dbd 0302 a83d 991f 2f3d
00000350: b77b 5f3d 1c6e 0ebe c53b 78be 849c a5bc
00000360: ef95 493e c81b fa3d a246 bcbd d833 afbc
00000370: 00b1 143e d8e3 efbd 1825 5c3e c7a7 3d3d
00000380: e408 e03d 8ffa 34be 094c 2a3d e07e c7bd
00000390: 9e69 4bba 697a ab3b 0cb9 9ebc 0cae ed3d
000003a0: ee48 1dbe 1f1b 73be 8757 aabd d041 7cbe
000003b0: 60a6 a23d 5f7d 4f3d afc8 1bbe be70 143e
000003c0: c8ba c23d 5100 c73d db3a 0e3c 55e5 953c
000003d0: cc4f 503d fadd 96bd 30dd 49be af42 163e
000003e0: ad58 9a3e 7044 323d 1ea8 853e 23b2 35bc
000003f0: e15d 2cbb 9aa8 10be 04ab 04be 6619 263e

fc1.bias f4 [256]
0.18169867 0.25161943 0.28936467 0.2166489 0.22209553 0.24519794 0.36683333 0.1334205
0.16016692 0.13858847 0.24419741 0.18184124 0.17478968 0.13124341 -0.020896787 0.062971495
0.18173249 -0.06932163 0.2156816 0.08014692 0.15390937 0.040029123 -0.031049335 0.10408059
0.17654061 0.0026040769 -0.09054421 -0.02204278 -0.087951034 0.19164295 0.3814354 0.06349907
0.11492824 -0.08052802 0.1223163 0.12214302 0.20942724 0.14484674 0.06768525 0.20382656
0.3019563 0.08354411 -0.008882629 0.12888697 -0.042218942 0.28891134 0.14973927 0.06734886
0.18979464 0.17520823 -0.043126404 0.23934409 0.1111213 0.053441226 0.1613615 0.18460438
-0.012570902 0.10726425 0.13405262 0.04042676 -0.15709677 0.18905872 0.2787843 0.25313142
0.14906453 0.090816095 -0.05346798 0.049027003 0.2196724 0.19199398 0.08046116 0.16832575
-0.07914866 -0.18245926 0.17273335 0.30102304 0.20877011 0.065690786 -0.015963927 0.2224446
0.12582156 -0.045121156 -0.008861757 0.16081366 0.17153268 0.12810779 0.0428102 0.04037639
0.08408922 0.19286707 -0.06793653 0.09992356 -0.0025404869 0.040579997 0.22012295 0.13888082
0.20705648 0.22945884 -0.055941045 0.168087 0.05213286 0.058553714 -0.03373312 0.0021416603
0.19407932 0.041489597 0.108082965 0.035117157 0.012386906 -0.01042591 0.15349872 0.1010698
0.02628378 0.2971137 -0.051839937 0.055951253 0.19559796 0.05243405 0.19383901 -0.10808165
0.2209552 0.26694417 0.18200994 0.2505617 0.19610503 -0.076129794 0.06780408 -0.011291535
0.18632911 0.14641112 -0.013924933 0.036737464 -0.023551384 -0.010876616 0.23798029 -0.058180153
0.050726 0.04271194 0.06593363 0.25441813 -0.06561978 0.26636538 0.14555687 0.004619805
0.22339547 0.20797952 0.035567973 0.050584957 -0.012994431 0.2305837 0.17258666 0.16385096
0.113297574 0.19250885 0.024467926 0.15629792 0.05940601 -0.056575663 -0.05342297 0.17074957
-0.01848928 0.23013417 0.100572206 0.0803014 0.117364824 0.13632257 0.21833837 0.076536454
-0.0076029263 0.07976194 0.212076 0.3356649 0.18782724 0.2739043 0.012537366 0.05835303
0.13311267 0.2761005 0.25054717 0.06356294 -0.041724913 0.21106677 0.17856222 -0.082240574
-0.13058802 -0.015117384 0.028178222 0.20454946 0.28483763 0.06407129 0.021065196 0.0044325865
0.0636622 -0.07233164 0.2783993 0.10898543 0.18990207 0.020580728 0.20701835 0.06165788
0.115129136 0.13493036 0.22843227 0.048964895 -0.11479367 0.21846405 0.21295525 -0.019182447
0.15729901 0.17430654 0.21994 0.16603033 0.033682626 -0.005510691 0.19293314 0.024938513
0.09134217 -0.14828609 0.14940397 0.008500854 0.187818 0.07216254 -0.059136875 0.27060243
0.07652241 0.02112316 -0.0066388226 0.22317325 -0.017252075 -0.13753088 0.021474307 0.15316582
0.14829989 0.24477749 0.14578766 0.21833998 0.103026696 -0.048010834 0.08822955 0.23383808
0.28251523 0.22442037 0.11768906 0.16457835 -0.053607695 0.12646826 0.009920669 0.25567046
-0.016940221 0.15062316 -0.0031994416 -0.021524876 -0.02737311 0.084233165 0.08085595 0.24842255
00000000: 370f 3a3e 43d4 803e 9b27 943e 36d9 5d3e
00000010: 036d 633e 2b15 7b3e 94d1 bb3e 629f 083e
00000020: cc02 243e 23ea 0d3e e30e 7a3e 9734 3a3e
00000030: 11fc 323e ac64 063e bd2f abbc 33f7 803d
00000040: 1518 3a3e 80f8 8dbd a3db 5c3e 1224 a43d
00000050: 6b9a 1d3e 94f5 233d 2d5b febc 3428 d53d
00000060: 10c7 343e 29a9 2a3b 3e6f b9bd 0f93 b4bc
00000070: ac1f b4bd 0d3e 443e 804b c33e cd0b 823d
00000080: 7f5f eb3d e0eb a4bd f880 fa3d 1f26 fa3d
00000090: 1874 563e b452 143e 909e 8a3d e9b7 503e
000000a0: 049a 9a3e 2d19 ab3d 7288 11bc f2fa 033e
000000b0: c5ed 2cbd 30ec 933e 4055 193e 33ee 893d
000000c0: 8759 423e c969 333e 50a5 30bd 9e16 753e
000000d0: 9093 e33d 30e5 5a3d f33b 253e ee08 3d3e
000000e0: 2ff6 4dbc 5cad db3d 1745 093e 8896 253d
000000f0: fadd 20be 9c98 413e d1bc 8e3e 719a 813e
00000100: 5fa4 183e cafd b93d 3e01 5bbd 8ad0 483d
00000110: cdf1 603e 129a 443e d2c8 a43d 965d 2c3e
00000120: b118 a2bd 9ad6 3abe 03e1 303e b11f 9a3e
00000130: d5c7 553e e488 863d c8c6 82bc 84c8 633e
00000140: 5ed7 003e f6d0 38bd e730 11bc 56ac 243e
00000150: 43a6 2f3e b02e 033e c059 2f3d b761 253d
00000160: f836 ac3d f27e 453e 4f22 8bbd b9a4 cc3d
00000170: 4c7e 26bb 3637 263d e967 613e c636 0e3e
00000180: 9d06 543e 42f7 6a3e 7022 65bd 001f 2c3e
00000190: 4489 553d 05d6 6f3d bd2b 0abd 195b 0c3b
000001a0: bbbc 463e fff0 293d 9a5a dd3d 02d7 0f3d
000001b0: 73f2 4a3c 70d1 2abc c52e 1d3e affd ce3d
000001c0: 1551 d73c 491f 983e 1d56 54bd 242d 653d
000001d0: d54a 483e 16c5 563d bc7d 463e ea59 ddbd
000001e0: 1442 623e e8ac 883e d060 3a3e a049 803e
000001f0: c2cf 483e f0e9 9bbd dedc 8a3d 2100 39bc
00000200: 0fcd 3e3e ccec 153e 6725 64bc 067a 163d
00000210: d5ee c0bc d633 32bc 1bb1 733e 504e 6ebd
00000220: 11c6 4f3d b7f2 2e3d 3608 873d 1843 823e
00000230: aa63 86bd 0b61 883e dc0c 153e bc61 973b
00000240: c8c1 643e 95f8 543e b9af 113d 2c32 4f3d
00000250: 98e6 54bc 221e 6c3e 8fba 303e 8cc8 273e
00000260: 8f08 e83d 0a21 453e f670 c83c 900c 203e
00000270: b753 733d e2bb 67bd 0bd2 5abd fad8 2e3e
00000280: d576 97bc 4ba8 6b3e cdf8 cd3d 0f75 a43d
00000290: f85c f03d 2598 0b3e 1894 5f3e 25bf 9c3d
000002a0: f821 f9bb 3a5a a33d 732a 593e 45dc ab3e
000002b0: c955 403e 2f3d 8c3e 8669 4d3c 9603 6f3d
000002c0: b04e 083e 0b5d 8d3e b847 803e 492d 823d
000002d0: bee7 2abd e321 583e 04d9 363e bf6d a8bd
000002e0: deb8 05be e7ae 77bc 04d6 e63c 6a75 513e
000002f0: 3dd6 913e cf37 833d eb90 ac3c 3b3f 913b
00000300: 5461 823d 9c22 94bd 5a8a 8e3e c133 df3d
00000310: b075 423e ea98 a83c 9efc 533e f98c 7c3d
00000320: d3c8 eb3d 2f2b 0a3e 26ea 693e 6a8f 483d
00000330: f218 ebbd 0ab5 5f3e f110 5a3e 8224 9dbc
00000340: fe12 213e 6a7d 323e f437 613e db03 2a3e
00000350: cbf6 093d 0793 b4bb 4490 453e da4b cc3c
00000360: 9b11 bb3d 4fd8 17be 5bfd 183e 2a47 0b3c
00000370: 5d53 403e f4c9 933d 8239 72bd 678c 8a3e
00000380: c8b7 9c3d 7a0a ad3c 7b8a d9bb 8787 643e
00000390: 3954 8dbc e5d4 0cbe e3ea af3c 80d7 1c3e
000003a0: eddb 173e f3a6 7a3e 5c49 153e 8494 5f3e
000003b0: a9ff d23d 02a7 44bd b2b1 b43d 4073 6f3e
000003c0: d6a5 903e 74ce 653e f606 f13d 3a87 283e
000003d0: be93 5bbd e580 013e 4d8a 223c 3de7 823e
000003e0: 38c6 8abc f53c 1a3e b9ad 51bb f054 b0bc
000003f0: 933d e0bc 7082 ac3d ce97 a53d 7b62 7e3e

fc2.weight f4 [256, 256]
0.17555402 -0.44257498 0.05383696 0.26874506 -0.2982961 0.23400934 -0.022931226 -0.07702496
0.19925164 -0.096164785 -0.103456266 0.11177509 -0.064335264 0.10120212 0.15466169 0.029876873
-0.029091364 0.10672914 0.01878118 0.101817295 -0.22265004 0.14518559 0.17253911 0.19795401
0.07191938 0.13091515 0.12317675 0.15922274 0.25457326 0.016575726 -0.15816084 0.22275387
-0.01098793 0.075290784 0.22787824 0.21761504 -0.03234542 0.05883276 0.19962025 0.027597945
-0.04583718 0.13223511 0.121329255 0.22177435 0.17012893 0.11119438 0.18853568 -0.21214089
-0.101786636 0.21191885 0.25508943 -0.0020856443 0.10009253 -0.0750626 -0.003690714 0.041211326
0.18067934 0.17358771 -0.016152062 0.012238641 0.29142272 0.014835624 -0.067982696 0.20487349
0.2652759 0.0072695166 -0.24982743 -0.073877566 -0.035038467 0.16202246 0.14113414 0.057603326
0.17334123 0.26000443 0.16614464 -0.054627012 0.08429637 0.145177 0.004719992 0.09328091
0.032162853 -0.05228282 0.24826162 0.19276758 -0.016302038 -0.17883077 0.055590853 -0.14041243
-0.18653399 0.14451197 0.21327895 0.14579198 -0.16441946 0.19565387 0.20995653 0.21280792
0.22672768 0.12743448 0.21905962 0.1520149 0.2239574 0.24079771 0.08194213 -0.02387519
0.15263754 0.020078428 0.1976675 -0.07665934 0.19248022 0.18250467 0.21772578 0.0841359
-0.20438026 0.09751208 0.09848535 0.19354138 0.09317579 0.13638324 0.103049934 0.044291254
-0.22330755 0.15838523 -0.021210112 0.33693668 0.29179668 0.320167 -0.16199395 0.120861255
0.20449172 0.19734783 0.114853516 -0.03659554 0.20853701 0.2546261 0.2406115 0.25938296
-0.20135532 -0.1316919 0.19277118 0.005403294 0.12507373 0.22181216 0.18627171 0.12841341
0.06899893 0.19883223 0.17406131 0.17075126 0.018838065 0.09060873 0.04559699 0.20057984
-0.021893403 0.2118033 0.20187801 0.14806175 0.09648243 -0.5011984 -0.023947831 0.09297049
-0.0143273715 0.2597328 0.2751056 0.05470399 0.22548461 0.22483894 0.15556832 0.078793064
0.19640267 0.25277457 0.07725548 0.05628941 0.13351826 -0.30256715 0.23340574 -0.024399607
0.19161166 0.16318494 0.09384798 -0.05568212 0.22158413 0.17803125 0.15193954 -0.08515233
0.19760212 -0.1175713 -0.028679447 -0.37741622 -0.18438694 0.21942957 -0.022866558 -0.02799537
0.09699192 0.1404176 -0.012845924 0.068001635 0.11911838 -0.14394306 0.2490518 0.15295582
0.2451713 -0.33946335 -0.2386809 -0.023425978 0.14344348 0.09671338 0.13366838 0.21662964
0.20877726 0.15138125 0.063249536 0.07958963 0.21272165 -0.31568697 0.1336116 0.26438797
0.06922552 0.31701663 0.19267774 0.11158443 0.13912456 0.20023745 -0.24186465 -0.028360246
-0.030976126 0.19215557 0.22146693 0.15486395 0.08490058 0.17871435 0.18873003 0.099372126
-0.40666708 0.20513234 0.032449067 0.18412423 0.09439899 0.2571525 0.08917759 0.24992731
0.10677756 -0.109969996 0.1375244 0.076306775 0.15420744 -0.17212248 0.24469051 0.017452115
-0.0046919724 -0.08283249 -0.41438386 -0.32226968 0.113213085 0.25320834 0.070845164 -0.06242568
00000000: 6fc4 333e 3099 e2be 2584 5c3d f498 893e
00000010: 44ba 98be 25a0 6f3e 44da bbbc 43bf 9dbd
00000020: 9f08 4c3e 0bf2 c4bd e1e0 d3bd 57ea e43d
00000030: 35c2 83bd 0f43 cf3d a25f 1e3e 58c0 f43c
00000040: 0351 eebc cf94 da3d fdda 993c 9685 d03d
00000050: 5ffe 63be 88ab 143e 18ae 303e 75b4 4a3e
00000060: 784a 933d 9f0e 063e 1844 fc3d 490b 233e
00000070: 6d57 823e d1c9 873c eaf4 21be 9719 643e
00000080: b806 34bc 0e32 9a3d ea58 693e 7ad6 5e3e
00000090: a27c 04bd 9ffa 703d 4069 4c3e 1615 e23c
000000a0: c4bf 3bbd a468 073e 797b f83d d118 633e
000000b0: 4736 2e3e e1b9 e33d 7f0f 413e 763b 59be
000000c0: 8375 d0bd 4101 593e 159b 823e 4eaf 08bb
000000d0: 50fd cc3d 6cba 99bd e8df 71bb 35cd 283d
000000e0: 0104 393e fac0 313e 5451 84bc 9584 483c
000000f0: 5c35 953e 1e11 733c 833a 8bbd 5bca 513e
00000100: 3ed2 873e 2035 ee3b c3d2 7fbe 1f4d 97bd
00000110: 7f84 0fbd 37e9 253e 7885 103e 77f1 6b3d
00000120: 5d80 313e 4d1f 853e d221 2a3e 93c0 5fbd
00000130: 93a3 ac3d 48a9 143e 2aaa 9a3b 100a bf3d
00000140: 32bd 033d 8326 56bd 4b38 7e3e dd64 453e
00000150: da8b 85bc 6a1f 37be 3cb3 633d 47c8 0fbe
00000160: c402 3fbe f2fa 133e cc65 5a3e 7e4a 153e
00000170: 935d 28be 7d59 483e d8fe 563e 52ea 593e
00000180: 4d2b 683e 2f7e 023e 2a51 603e cba9 1b3e
00000190: 1755 653e ad93 763e 47d1 a73d e795 c3bc
000001a0: 044d 1c3e 847b a43c 5969 4a3e 92ff 9cbd
000001b0: 8919 453e 81e2 3a3e 82f3 5e3e 714f ac3d
000001c0: 0f49 51be 6ab4 c73d b0b2 c93d b62f 463e
000001d0: f3d2 be3d 0ca8 0b3e d80b d33d bf6a 353d
000001e0: bcaa 64be bd2f 223e d4c0 adbc f782 ac3e
000001f0: 6066 953e eeec a33e bee1 25be 1b86 f73d
00000200: 4766 513e 8d15 4a3e 5238 eb3d 34e5 15bd
00000210: ba8a 553e 5a5e 823e dc62 763e d8cd 843e
00000220: 1730 4ebe 3eda 06be cf65 453e 1e0e b13b
00000230: 5413 003e ba22 633e 03be 3e3e ce7e 033e
00000240: 504f 8d3d ad9a 4b3e 213d 323e 6bd9 2e3e
00000250: 4952 9a3c 1291 b93d e9c3 3a3d cd64 4d3e
00000260: cb59 b3bc f7e2 583e 1cb9 4e3e 809d 173e
00000270: 9598 c53d 8a4e 00bf 3e2e c4bc 5067 be3d
00000280: 5abd 6abc b3fb 843e a4da 8c3e 4b11 603d
00000290: 70e5 663e 2e3c 663e 4d4d 1f3e 425e a13d
000002a0: c81d 493e ab6b 813e 1f38 9e3d b98f 663d
000002b0: 03b9 083e 15ea 9abe ea01 6f3e afe1 c7bc
000002c0: d935 443e f419 273e 5f33 c03d ef12 64bd
000002d0: f3e6 623e d34d 363e 0a96 1b3e 5864 aebd
000002e0: 3658 4a3e 39c9 f0bd 29f1 eabc b33c c1be
000002f0: eecf 3cbe 25b2 603e a652 bbbc 8c56 e5bc
00000300: b3a3 c63d a2c9 0f3e b677 52bc 7144 8b3d
00000310: 56f4 f33d cf65 13be 6f07 7f3e 73a0 1c3e
00000320: 2f0e 7b3e 24ce adbe c468 74be d6e7 bfbc
00000330: d9e2 123e aa11 c63d 5de0 083e 29d4 5d3e
00000340: b5c9 553e b003 1b3e f988 813d e3ff a23d
00000350: b4d3 593e b9a1 a1be 7bd1 083e dc5d 873e
00000360: 1cc6 8d3d 0150 a23e 504d 453e 6186 e43d
00000370: ab76 0e3e 0c0b 4d3e 5eab 77be bf53 e8bc
00000380: a5c1 fdbc 6ec4 443e 3ac8 623e a894 1e3e
00000390: 5be0 ad3d e500 373e 7242 413e 9d83 cb3d
000003a0: ab36 d0be 360e 523e 50e9 043d 108b 3c3e
000003b0: 4254 c13d 7ea9 833e bea2 b63d f2ec 7f3e
000003c0: 32ae da3d f337 e1bd 32d3 0c3e ba46 9c3d
000003d0: 8ee8 1d3e e040 30be 2690 7a3e bdf7 8e3c
000003e0: 1ebf 99bb 15a4 a9bd 1f2a d4be 8800 a5be
000003f0: 43dc e73d 86a4 813e 4517 913d 12b2 7fbd

fc2.bias f4 [256]
0.11987015 -0.024512416 -0.007107362 0.06173931 0.08615995 0.1143801 -0.057856012 0.14382176
0.05744607 0.07685655 0.09506977 -0.024631416 0.107262686 0.0395421 0.10806753 0.024210729
0.12697597 0.07631168 -0.0040668873 0.055555355 -0.06582429 0.054403502 0.015749622 0.09834568
0.053794824 0.049494773 0.060504787 -0.0034502149 -0.06386533 0.002366333 0.1724661 0.11523338
-0.042730346 0.00012656448 0.12715523 0.09726914 0.101870015 -0.026398206 0.09643208 0.09335887
0.017350119 0.058898732 0.014915375 0.041788027 0.048417997 0.0129438 0.13253805 0.035292853
0.06926151 -0.03526396 0.02884912 0.053028278 0.09480327 0.009157207 0.04210425 0.0059452653
0.01774197 0.08795144 0.017373387 -0.024207424 0.06989225 0.027643748 -0.00708068 0.11626096
0.11820757 0.05810302 0.03664326 0.056278534 0.10831649 0.07894558 0.010220611 0.047241777
0.019541996 0.010930633 0.16870333 0.014597815 0.015153055 -0.032047145 0.1786313 0.061240453
-0.036332354 0.14058547 0.03894467 0.109416075 -0.024055228 0.10586011 0.022560231 0.021433942
0.114915565 0.021383159 -0.01540856 0.1574484 0.08748728 -0.010897384 -0.042458337 0.044955146
-0.048400074 0.033144485 0.07573786 0.15376218 0.084169604 0.0526516 -0.0136543475 0.11721625
0.041290805 0.019773701 0.11448858 0.11174668 0.12664045 0.09947353 -0.04127084 0.12927736
0.045217242 -0.010025227 0.04855318 0.03398939 0.029436503 0.05947763 0.059929114 0.10325068
0.046051126 0.10143337 -0.0010233532 0.008282705 0.12698457 0.04475306 0.11943627 0.019604791
0.08931864 0.022609318 0.10389493 -0.016612478 -0.010182651 0.03782214 0.18915176 0.09973989
0.12949492 0.1550988 0.0076907994 -0.026306042 0.12419969 -0.03658521 0.12579338 0.052293874
0.046751294 -0.010871093 0.049548965 0.06187617 0.08245144 0.014759203 0.07945801 -0.017494123
-0.027034668 0.067441754 0.008354488 0.05099262 -0.0019734157 0.00045857037 0.10735615 0.12809046
-0.004516216 0.01972806 0.04894358 0.017858572 -0.012886344 0.04604112 0.10596028 0.033723865
0.1394258 0.037713703 0.07759626 -0.016342951 0.0746029 -0.0343222 0.004902317 0.011425365
-0.05327897 0.058061913 0.07110006 0.058463942 0.08121788 0.0026054014 0.08112506 -0.026921
0.13669215 0.082413696 -0.017893896 0.042361896 0.006120905 0.09299344 -0.0001765055 0.08329647
0.07081828 0.08642157 0.08568339 0.046336506 0.030259542 0.083075285 0.07800737 0.027036399
0.08991069 0.11219782 0.015952796 -0.07595275 -0.025788838 0.07437289 -0.0052807974 0.06250937
-0.037501305 0.05337399 0.036371637 -0.05289651 -0.008207116 0.08881313 0.029969538 0.048253514
0.02935614 0.078628995 0.01299946 0.0511488 0.10546184 0.045188174 0.013498051 0.04099856
0.07646297 0.06822801 0.11221516 0.032942936 0.08424146 0.11727616 0.10488001 0.08757195
0.080363065 0.025620969 0.12709382 0.068780966 0.03991876 -0.045081567 0.028128346 -0.019536851
0.010995079 0.06950165 0.059589773 0.04486861 0.08332002 0.06286709 -0.026001401 0.1136732
0.0396389 0.017704232 0.048438054 0.033025354 0.089342706 -0.006455465 0.08930157 0.0417274
00000000: 7b7e f53d 43ce c8bc e0e4 e8bb 5ce2 7c3d
00000010: a174 b03d 1d40 ea3d 6dfa 6cbd 0346 133e
00000020: 924c 6b3d f866 9d3d f1b3 c23d d3c7 c9bc
00000030: 8aac db3d e6f6 213d 8252 dd3d 9455 c63c
00000040: fd05 023e 4c49 9c3d 8643 85bb 038e 633d
00000050: e3ce 86bd 35d6 5e3d 5a05 813c 7669 c93d
00000060: f657 5c3d 08bb 4a3d ded3 773d 001d 62bb
00000070: d3cb 82bd 7b14 1b3b f49a 303e 7aff eb3d
00000080: 0406 2fbd 65b6 0439 fb34 023e 0b35 c73d
00000090: 3aa1 d03d 0d41 d8bc 2f7e c53d ef32 bf3d
000000a0: d621 8e3c cc3f 713d 9e5f 743c ec29 2b3d
000000b0: f351 463d 3b12 543c 0eb8 073e 3d8f 103d
000000c0: fbd8 8d3d f170 10bd fd54 ec3c 2e34 593d
000000d0: 3828 c23d 1c08 163c 8275 2c3d 80d0 c23b
000000e0: 9c57 913c e21f b43d a252 8e3c a64e c6bc
000000f0: ab23 8f3d 2475 e23c 0d05 e8bb 3a1a ee3d
00000100: cf16 f23d 6ffd 6d3d 3e17 163d 5284 663d
00000110: 09d5 dd3d 38ae a13d 5974 273c 9880 413d
00000120: 8916 a03c 6616 333c 91c0 2c3e ad2b 6f3c
00000130: 8544 783c de43 03bd 20eb 363e 45d7 7a3d
00000140: 3cd1 14bd a3f5 0f3e 7284 1f3d 8915 e03d
00000150: 780f c5bc 2fcd d83d 3cd0 b83c 3c96 af3c
00000160: da58 eb3d bc2b af3c 2f74 7cbc 273a 213e
00000170: 882c b33d f18a 32bc cbe8 2dbd e322 383d
00000180: 283f 46bd 83c2 073d 731c 9b3d d573 1d3e
00000190: 1d61 ac3d 34a9 573d 7cb6 5fbc 130f f03d
000001a0: 8c20 293d 75fc a13c fd78 ea3d 72db e43d
000001b0: 09ae 013e c7b8 cb3d 9d0b 29bd 4961 043e
000001c0: b735 393d da40 24bc b3df 463d 7538 0b3d
000001d0: d224 f13c d19e 733d 3b78 753d 1875 d33d
000001e0: 1ba0 3c3d 4cbc cf3d 0922 86ba 2fb4 073c
000001f0: 3e08 023e fc4e 373d 019b f43d 3a9a a03c
00000200: b1ec b63d 2d37 b93c ddc6 d43d e416 88bc
00000210: 22d5 26bc 63eb 1a3d 00b1 413e 6d44 cc3d
00000220: 519a 043e 38d2 1e3e 1a03 fc3b c57f d7bc
00000230: 685c fe3d 60da 15bd fbcf 003e 1a32 563d
00000240: 497e 3f3d ab1c 32bc dbf3 4a3d de71 7d3d
00000250: 4ddc a83d 96d0 713c e2ba a23d d64f 8fbc
00000260: cf77 ddbc e71e 8a3d 43e1 083c a3dd 503d
00000270: 6c54 01bb 466c f039 8bdd db3d 252a 033e
00000280: c4fc 93bb be9c a13c 1079 483d 244c 923c
00000290: 3f21 53bc 9d95 3c3d b401 d93d 0922 0a3d
000002a0: a3c5 0e3e af79 1a3d caea 9e3d a7e1 85bc
000002b0: 68c9 983d 6f95 0cbd 9ea3 a03b 7431 3b3c
000002c0: 0d3b 5abd 54d2 6d3d e99c 913d e377 6f3d
000002d0: 8f55 a63d 62bf 2a3b e524 a63d 6e89 dcbc
000002e0: 07f9 0b3e 83c8 a83d 3896 92bc ab83 2d3d
000002f0: df91 c83b 5873 be3d 5614 39b9 5797 aa3d
00000300: 2d09 913d cbfd b03d c67a af3d 59cb 3d3d
00000310: dce2 f73c 6023 aa3d 54c2 9f3d 707b dd3c
00000320: 1923 b83d f8c7 e53d 70af 823c 1e8d 9bbd
00000330: 1d43 d3bc d050 983d 8a0a adbb ea04 803d
00000340: f89a 19bd af9e 5a3d 6dfa 143d 03aa 58bd
00000350: 2477 06bc a9e3 b53d ad82 f53c 7aa5 453d
00000360: 4a7c f03c 3d08 a13d b0fb 543c 6781 513d
00000370: 61fc d73d 3c17 393d ee26 5d3c 1bee 273d
00000380: 9e98 9c3d 20bb 8b3d 10d1 e53d 2cef 063d
00000390: c986 ac3d 7c2e f03d 55cb d63d ec58 b33d
000003a0: 6495 a43d 11e3 d13c e224 023e 09dd 8c3d
000003b0: db81 233d 73a7 38bd 6b6d e63c bf0b a0bc
000003c0: b424 343c e256 8e3d 6814 743d 26c8 373d
000003d0: b0a3 aa3d 76c0 803d e400 d5bc 7fcd e83d
000003e0: 665c 223d 7708 913c fb66 463d 9845 073d
000003f0: 4ff9 b63d 5e88 d3bb bee3 b63d 5aea 2a3d

fc3.weight f4 [10, 256]
-0.16397046 -0.03949807 -0.09784743 0.33785185 0.23488168 0.35997036 -0.11188888 0.45656332
-0.060956992 -0.15516269 -0.102249734 -0.121447675 -0.12985206 0.19008632 -0.12292939 -0.0807832
-0.1579124 -0.065292366 -0.1040474 0.16895722 -0.1753449 -0.16418423 0.03402057 -0.14346133
0.30499715 -0.07431353 -0.057063296 -0.084676355 0.03808409 -0.12895143 -0.1873549 -0.13593955
-0.057755984 0.038803745 -0.10009299 -0.08838696 0.28102848 -0.11159788 -0.17777467 -0.026741268
0.04181886 -0.19346523 0.35032362 -0.13333574 0.34331805 0.20341453 -0.06500243 -0.15826546
0.30377728 -0.12610433 0.061694328 0.13411647 0.30332825 -0.068404354 -0.13076755 -0.087788574
-0.15192698 -0.10023832 0.3576457 -0.04584996 -0.11431984 -0.022487689 -0.12798855 0.084325075
0.013894758 0.17235497 0.279312 0.24404033 -0.07541556 -0.10698599 -0.119349875 -0.10826318
-0.111287296 0.28153667 -0.15433028 -0.048591204 -0.10660099 -0.100982845 -0.15405706 -0.09511969
-0.09676736 -0.10444164 0.4214279 0.4096832 -0.10848341 -0.17258006 0.350208 -0.015953543
-0.04729556 -0.115855515 -0.08629252 0.29745588 -0.056946505 -0.09351418 -0.031163733 -0.089985505
-0.107023425 0.31226707 0.30754533 -0.05617795 0.23274478 -0.06248444 -0.10928662 -0.06885865
0.27792567 -0.03438947 -0.08827309 0.39501604 0.15048012 -0.010442062 0.024939321 -0.02616303
0.41400164 -0.040550683 -0.032541003 -0.116778694 -0.09615892 -0.054926716 -0.16269735 -0.09377453
-0.038297318 0.11212895 -0.07379801 -0.0070760436 0.35585386 -0.11999235 -0.03749013 0.062502176
-0.13679731 -0.12620845 -0.12536556 -0.13453028 -0.0027627216 -0.010466903 -0.12695895 -0.10015254
0.33945963 -0.11772044 -0.050329078 0.02150675 -0.1277559 -0.10291507 -0.15840395 -0.06226999
-0.027082272 -0.12188983 0.053252004 0.25198695 0.44203666 0.0071565863 -0.033565618 0.0015954524
0.05737164 -0.18463373 -0.00739624 -0.06580771 -0.060725126 0.26665333 -0.10929596 -0.041952327
0.27456987 -0.090522535 0.04377738 -0.014885006 -0.08849929 -0.037044972 -0.15038043 -0.1308016
-0.061793234 -0.06080053 -0.03688004 -0.13716286 -0.17766103 0.28099638 -0.069405675 0.12730987
-0.20681289 -0.12820314 -0.019393008 0.06812606 0.021507803 -0.15539049 0.22451286 0.0061414265
0.12097043 -0.16577552 0.043693878 -0.08059246 -0.0580217 -0.124183 -0.16919617 0.15527943
-0.15688083 -0.14252745 -0.14839296 0.014553663 0.2866387 -0.123819895 0.20369038 0.40095893
-0.15193327 -0.19231094 -0.11616388 -0.0074639223 -0.058110733 0.2641119 -0.13825248 -0.14042318
0.14189327 0.29781464 -0.16187099 -2.117625e-06 -0.106416136 0.2724562 -0.0831706 -0.10813677
0.2612013 -0.16774577 -0.04133663 -0.14051932 -0.02899815 0.17298605 -0.082937434 -0.18918662
-0.034243856 -0.09162118 -0.18612422 -0.13977055 -0.1354626 -0.06653661 -0.12272826 -0.14480188
-0.14341737 0.007833578 -0.13061567 -0.17460825 -0.11475066 -0.009900073 -0.110312015 -0.1332434
-0.06795792 0.3681097 -0.11354672 0.44741413 -0.10424721 0.2935993 -0.086845264 -0.14857477
0.014854035 -0.036065105 -0.08737438 -0.15014711 0.010561036 0.26369163 -0.09340407 -0.18957755
00000000: dfe7 27be bac8 21bd 3c64 c8bd ebfa ac3e
00000010: d384 703e 094e b83e ff25 e5bd abc2 e93e
00000020: 0aae 79bd f8e2 1ebe 4f68 d1bd 8fb9 f8bd
00000030: f0f7 04be fda5 423e 67c2 fbbd aa71 a5bd
00000040: cab3 21be 01b8 85bd ce16 d5bd 1f03 2d3e
00000050: 9d8d 33be e91f 28be 2759 0b3d 87e7 12be
00000060: 9628 9c3e b131 98bd 34bb 69bd cc6a adbd
00000070: 10fe 1b3d d80b 04be f7d9 3fbe bd33 0bbe
00000080: 8a91 6cbd adf0 1e3d 8efd ccbd 3904 b5bd
00000090: f7e2 8f3e 6e8d e4bd 900a 36be 8110 dbbc
000000a0: 414a 2b3d c01b 46be 9e5d b33e 2a89 08be
000000b0: 62c7 af3e e64b 503e fe1f 85bd 5710 22be
000000c0: b288 9b3e 7e21 01be 31b3 7c3d d455 093e
000000d0: d74d 9b3e 9517 8cbd eee7 05be 7fca b3bd
000000e0: bf92 1bbe c049 cdbd 561d b73e 2bcd 3bbd
000000f0: 8520 eabd 1a38 b8bc 6e0f 03be a0b2 ac3d
00000100: d7a6 633c d27d 303e fc01 8f3e b5e5 793e
00000110: 7973 9abd 791b dbbd b56d f4bd 16b9 ddbd
00000120: 98ea e3bd 9325 903e c208 1ebe 9207 47bd
00000130: 9f51 dabd 18d0 cebd 22c1 1dbe 1dce c2bd
00000140: f72d c6bd 80e5 d5bd 66c5 d73e ffc1 d13e
00000150: 8d2c debd d4b8 30be 774e b33e 01b1 82bc
00000160: fdb8 41bd a845 edbd 22ba b0bd 234c 983e
00000170: bd40 69bd 5d84 bfbd 164b ffbc 524a b8bd
00000180: 192f dbbd 78e1 9f3e 9576 9d3e da1a 66bd
00000190: a654 6e3e afef 7fbd aad1 dfbd c405 8dbd
000001a0: 464c 8e3e f9db 0cbd 86c8 b4bd 8b3f ca3e
000001b0: 7617 1a3e 2f15 2bbc 8c4d cc3c da53 d6bc
000001c0: 06f8 d33e 7918 26bd b749 05bd ab29 efbd
000001d0: f8ee c4bd d6fa 60bd 229a 26be dc0c c0bd
000001e0: a6dd 1cbd dda3 e53d 6923 97bd 28de e7bb
000001f0: 7a32 b63e 8dbe f5bd 408f 19bd 2401 803d
00000200: 9814 0cbe ca3c 01be d45f 00be 4ec2 09be
00000210: c70e 35bb 607d 2bbc 8701 02be c61c cdbd
00000220: a7cd ad3e 6a17 f1bd dd25 4ebd ec2e b03c
00000230: 71d2 02be 23c5 d2bd a534 22be d10e 7fbd
00000240: a4db ddbc 60a1 f9bd c61e 5a3d 6f04 813e
00000250: a152 e23e cc81 ea3b 1a7c 09bd 801e d13a
00000260: 86fe 6a3d a010 3dbe 285c f2bb 31c6 86bd
00000270: e9ba 78bd c986 883e 8fd6 dfbd 34d6 2bbd
00000280: 6c94 8c3e e163 b9bd e94f 333d 3de0 73bc
00000290: 1e3f b5bd 78bc 17bd 54fd 19be dbf0 05be
000002a0: e71a 7dbd fa09 79bd 860f 17bd 6c74 0cbe
000002b0: c6ec 35be c2de 8f3e 9024 8ebd 855d 023e
000002c0: c2c6 53be af47 03be 16de 9ebc ad85 8b3d
000002d0: 2231 b03c af1e 1fbe b3e6 653e 053e c93b
000002e0: 58bf f73d 0fc1 29be 5af8 323d a90d a5bd
000002f0: 29a8 6dbd a853 febd c341 2dbe 9201 1f3e
00000300: 5ea5 20be b7f2 11be 53f4 17be 7d72 6e3c
00000310: 4fc2 923e 4995 fdbd 3694 503e 7d4a cd3e
00000320: 6594 1bbe 29ed 44be 54e7 edbd eb93 f4bb
00000330: 8505 6ebd ad39 873e 0f92 0dbe 18cb 0fbe
00000340: 784c 113e 297b 983e 82c1 25be 851c 0eb6
00000350: b4f0 d9bd 617f 8b3e 5955 aabd d076 ddbd
00000360: 2dbc 853e 8cc5 2bbe 9950 29bd 4ce4 0fbe
00000370: 878d edbc 4123 313e 1adb a9bd 23ba 41be
00000380: 4943 0cbd e3a3 bbbd 5997 3ebe 0320 0fbe
00000390: b5b6 0abe 5944 88bd f458 fbbd f246 14be
000003a0: 01dc 12be 6858 003c 1dc0 05be 81cc 32be
000003b0: 6502 ebbd ea33 22bc 44eb e1bd f570 08be
000003c0: 862d 8bbd e078 bc3e 2f8b e8bd 7713 e53e
000003d0: 907f d5bd a652 963e eedb b1bd fc23 18be
000003e0: 575e 733c 01b9 13bd 57f1 b2bd 2ac0 19be
000003f0: 3208 2d3c 9702 873e a24a bfbd 9e20 42be

fc3.bias f4 [10]
0.014201003 -0.08610213 0.03948744 -0.055465933 -0.020011561 -0.055200256 -0.005653093 -0.055620212
0.006439712 0.029054463
00000000: 53ab 683c 5056 b0bd 95bd 213d 3f30 63bd
00000010: 49ef a3bc aa19 62bd 953d b9bb 05d2 63bd
00000020: 3804 d33b a003 ee3c
