dqn_checkpoint_v.pth (torch, 311583 bytes, 6 tensors)

fc1.weight f4 [256, 34]
000000 6b c2 1f 3e a7 a4 4a 3e 75 0d 68 3d 9b ef 8f ba
       0.15601508 0.19789372 0.05665346 -0.0010981442
000010 61 38 2b 3e 5e cc 88 bc 3f 9b 45 3e db 76 04 3e
       0.16720726 -0.016699012 0.19297503 0.12935965
000020 b3 9a 09 be fe 60 0d be 4b 61 35 3d ee 6a 4b 3d
       -0.1343792 -0.13806531 0.04428224 0.049662523
000030 a8 ff a3 bd 64 dc 1c bd f5 fe 57 3e f8 7f d7 bd
       -0.08007747 -0.03829612 0.21093352 -0.10522455
000040 a0 b4 fa bd ee 25 80 bd 94 f1 5a 3d f0 05 e5 3c
       -0.12241483 -0.062572345 0.053453043 0.027956933
000050 e6 bc 71 bd 47 87 0f 3e 1f 3a 4c 3e d5 a2 87 bd
       -0.05901804 0.14016448 0.19944046 -0.066228546
000060 56 03 a2 bd df b7 de bd 79 23 4c 3e fc 26 2e 3e
       -0.079107925 -0.108749144 0.19935407 0.17007059
000070 4d 09 5c bc 65 f7 18 bd 76 9e 8e bd 56 d6 ea bc
       -0.013429952 -0.03734531 -0.06963818 -0.028666656
000080 59 bf 9d bd 9d 04 d1 bd 90 fb 71 3d 67 33 6f bd
       -0.07702512 -0.10205958 0.0590778 -0.05839863
000090 3d a1 8d 3d cc 23 dd bd 89 32 14 bd 31 fb 35 be
       0.069155194 -0.10797843 -0.036181007 -0.17771603
0000a0 e6 26 e5 3d 65 31 3a 3e 68 a4 cb 3c 2f d4 ae bc
       0.1118906 0.18182905 0.024858668 -0.021341411
0000b0 dc 06 04 be c7 db 67 3d 68 a8 f7 3d 09 2c 3e 3e
       -0.12893242 0.05660608 0.12092668 0.18571486
0000c0 73 93 44 3e 1a 98 dc 3d f1 66 b2 3d 01 a0 64 bd
       0.19196872 0.107711986 0.08711041 -0.055816654
0000d0 28 06 45 3e 5b 71 0b be 07 85 00 3c c0 c5 42 bd
       0.1924063 -0.1361746 0.007844216 -0.04755187
0000e0 6b 9b 2e 3e d2 53 15 3e 6a b2 2f 3e db 9a b7 ba
       0.17051475 0.14582756 0.17157903 -0.0014007943
0000f0 21 dc 71 bd 95 91 2c be a2 c8 0a bd 59 69 50 bc
       -0.059047822 -0.1685241 -0.033882745 -0.012720429
000100 a9 0f 3d be 0e ce f8 bd 63 3b 04 be cc 32 48 3e
       -0.18463005 -0.12148677 -0.12913279 0.19550627
000110 cd 88 90 3e d2 f6 51 be 12 a4 a2 3d cc dc 03 be
       0.2822937 -0.2050431 0.0794145 -0.12877196
000120 3d ab fd 3c 8a a1 46 3e 3a 25 9b bc 70 70 ed 3d
       0.030965442 0.1939756 -0.01893865 0.115937114
000130 10 de 98 bd 07 37 16 3e f5 00 b5 3d 09 dc 1f be
       -0.0746423 0.14669429 0.08838073 -0.1561128
000140 89 84 91 3d f0 bd 24 3e d2 54 af bd f7 f6 f0 3d
       0.07105357 0.1608808 -0.085611 0.11765855
000150 fd 7e ef 3d 6c 8f 00 bd ad 1b fb 3d 37 65 26 bd
       0.11694143 -0.031386778 0.12261138 -0.04062387
000160 a6 7b 8b bd 5c fa 51 3e b5 df c2 bd 4c f4 08 3d
       -0.068106934 0.20505661 -0.09515325 0.033436105
000170 68 e8 6f 3e 0e 3c 5f 3d 4a ee c0 bb ff 63 be 3d
       0.234285 0.054500632 -0.0058877813 0.092964165
000180 9a cc cb bd 84 89 65 be c3 53 94 3d 05 9c 1c bd
       -0.09951134 -0.2241574 0.07242539 -0.03823473
000190 ee 14 b5 bd ae c9 1c bd f7 cd 54 3d e7 ae 0b 3e
       -0.08841883 -0.038278274 0.051954236 0.13640939
0001a0 90 42 68 3d 0c 5a 1b bd e0 7e 97 3d 48 67 01 be
       0.056704104 -0.037927672 0.07397246 -0.12637055
0001b0 d3 5e 52 bd 06 fc 66 3d 6a f5 d4 bd 1e 58 18 3e
       -0.051359963 0.056392692 -0.103983715 0.14877364
0001c0 78 30 25 bd 6b 7b 91 3c b5 37 03 be c0 26 01 be
       -0.040329427 0.017759046 -0.1281422 -0.12612438
0001d0 5b 7b 27 3d 6b 08 45 3e ae 81 d7 ba d2 8d 15 3c
       0.040889125 0.19241492 -0.0016441846 0.009128051
0001e0 13 af c6 3d 9b 1e 49 be 4b 5e 04 be 02 8f ec 3d
       0.097013615 -0.19640581 -0.12926595 0.11550714
0001f0 9d 9c 95 3d db d9 3d 3c eb 3a 24 3e 75 65 27 3e
       0.07305262 0.011587585 0.160381 0.16347297
000200 a5 0f a5 bd ac 36 16 be 82 2e 2a 3e 9f c5 1e 3e
       -0.080596246 -0.14669293 0.16619304 0.15505074
000210 5c 9d 67 3e 37 58 8d 3d 5e c8 9b bd d8 0f 2f 3d
       0.22618622 0.06901591 -0.076065764 0.04273972
000220 97 c5 6e 3c 31 3b 19 be 9f 92 37 3e ef 08 20 3e
       0.014573476 -0.14963986 0.17927025 0.15628408
000230 3e 6d c7 3c 01 ec 37 bb 58 3e d8 bd b4 28 10 3e
       0.024344083 -0.0028064253 -0.10558766 0.14078027
000240 1e 46 3c bd aa 49 be bd d8 33 6b be d5 40 ed bd
       -0.045965306 -0.09291394 -0.22968996 -0.11584631
000250 07 73 5a 3e d7 22 cc 3d 0b a0 63 bd eb 6b a7 3d
       0.21332942 0.09967583 -0.05557255 0.081748806
000260 03 ec 40 3e 67 86 c2 bd 0d cb a7 bc cc b0 08 be
       0.18840031 -0.094982915 -0.020482564 -0.13348693
000270 db 84 bc bd 35 15 12 3d 6f 63 8e bd e5 b5 13 3e
       -0.09205028 0.035664756 -0.06952559 0.14424856
000280 95 4d 1f bd 58 c1 54 3b 6e d5 4e 3e 0f 5c 6f be
       -0.038892347 0.0032463875 0.20198604 -0.23374961
000290 b5 8e 04 be dc ab 8c 3c 55 3b 66 bd 23 12 8e 3d
       -0.12945063 0.017171793 -0.056208927 0.06937053
0002a0 c8 0b 70 3d 00 d2 5d 3e 12 f0 03 be f6 45 32 3e
       0.058604985 0.2166214 -0.12884548 0.174095
0002b0 15 a6 0e be 87 76 cb bd e6 65 0b be fb e3 dc bd
       -0.13930543 -0.09934717 -0.1361309 -0.10785671
0002c0 a3 3b 0c be 6c a8 53 bd dc 69 43 be de 14 5e 3d
       -0.13694625 -0.05167429 -0.19083351 0.05421912
0002d0 48 fa ea 3d 81 ec d7 3d 11 59 16 3e 4d 80 db bd
       0.114735186 0.105431564 0.14682414 -0.10717831
0002e0 73 ca 51 be cb 45 ed 3d 83 04 01 3e 93 1b 4b 3d
       -0.20487384 0.115855776 0.12599377 0.049586844
0002f0 b5 0b 58 bd 0c 04 3c 3e b6 75 22 be 80 f3 30 3d
       -0.05274554 0.18360919 -0.15865216 0.04320097
000300 48 bb 9a 3c 19 56 6b 3d 6e db 0c 3d 41 c8 0a 3e
       0.01888813 0.057455156 0.034388952 0.13552953
000310 6c d3 37 3e 95 a0 7c bc 09 34 1c bc b2 bb e8 3d
       0.17951745 -0.015419145 -0.0095338905 0.11363925
000320 78 6d 45 3e f9 af 5a 3e 98 b2 25 3e f3 f5 15 be
       0.1928004 0.2135619 0.1618141 -0.14644603
000330 55 95 a7 3d 18 23 44 bc f7 4e 8d 3d f7 08 1e bc
       0.0818278 -0.011971258 0.06899827 -0.009645692
000340 58 53 b6 3d b4 f7 a8 bd c4 56 18 3e 5b a2 75 3e
       0.08902615 -0.082503706 0.14876848 0.23987715
000350 b0 9b 2b 3e 08 f2 52 be 22 e8 bd be 22 f8 49 3e
       0.16758609 -0.2060014 -0.37091166 0.19723561
000360 df e9 a9 3d 5f ac 8b 3d 5d d5 3c be 62 88 1f be
       0.082965605 0.068199866 -0.18440767 -0.1557937
000370 2e 94 09 bc 08 f9 24 3e f2 9b cc bd 62 e0 e4 3c
       -0.008397145 0.16110623 -0.09990682 0.027939025
000380 aa 2d 2a 3e 16 63 04 be fb 51 fa 3d 98 56 01 bd
       0.16618982 -0.12928423 0.12222668 -0.031576723
000390 5b 5c 1a 3e fd 06 31 3e c9 ce 1f be b9 58 32 3d
       0.15074293 0.17287822 -0.15606226 0.043541644
0003a0 63 d1 01 be 0b 2e 13 be a7 a4 a4 be d8 90 6c bd
       -0.12677531 -0.14373033 -0.3215687 -0.05775532
0003b0 e7 d4 14 be 2c 76 10 3e d1 a4 ea 3c e4 57 35 3e
       -0.14534341 0.14107579 0.028643044 0.17709309
0003c0 d2 f4 2d be 95 8e 31 3d 9a 9d 7b bd 50 4e 2b 3b
       -0.16987923 0.043348867 -0.061429597 0.0026139207
0003d0 45 48 25 bc 85 7f 4f 3e 33 e3 77 bd ca 83 f8 3b
       -0.010088031 0.20263489 -0.06051941 0.00758407
0003e0 e0 80 87 bd 86 42 00 3e dd 74 e2 3d 9b 5e 3f 3e
       -0.06616378 0.12525377 0.11057446 0.18688433
0003f0 49 78 b7 bc f7 75 25 3c e8 2a 03 3e c5 c0 47 3e
       -0.022396224 0.010098926 0.12809336 0.1950713

fc1.bias f4 [256]
000000 51 87 04 3e 85 8c 30 bd bc 8c 17 3e 50 39 0b 3e
       0.12942244 -0.04310276 0.1479978 0.13596082
000010 15 24 3f 3c 6b 3b 1d 3d 01 7f 24 bc 7c 75 cb bc
       0.0116663175 0.038386744 -0.010040046 -0.024836294
000020 4c a4 d9 bd 29 4c 3e bc 58 1a c7 bd 73 10 04 3e
       -0.1062704 -0.011614838 -0.097218215 0.128969
000030 0b 62 86 bb 4d ff 0f bd 1d 54 12 3e 94 67 e7 bd
       -0.004101043 -0.035155583 0.14289899 -0.11299053
000040 54 83 12 3e 31 9f 1c be fd d5 a4 3d 0b 33 2d 3e
       0.1430791 -0.15295102 0.080486275 0.16914003
000050 11 b5 f3 bd 19 78 94 3d 40 fd f1 3d 10 33 d3 3d
       -0.1189977 0.07249469 0.11815882 0.10312474
000060 76 eb 45 3e f3 72 22 3e a0 a0 39 3e ba a5 18 3e
       0.19328102 0.15864162 0.1812768 0.1490697
000070 d8 a0 f1 bc eb 68 e5 3d 49 bd b4 bd 2a 24 d1 3d
       -0.029495642 0.11201652 -0.08825166 0.10211976
000080 e3 6d 03 bd c5 eb 93 3d 92 8c e7 bc e5 62 fa bd
       -0.032087218 0.07222704 -0.028265271 -0.12225894
000090 5f e4 77 3d c1 f8 b8 bd c9 f8 bc bd cd f2 6e bd
       0.060520526 -0.09031821 -0.092271395 -0.05833702
0000a0 2f de b5 bd 6b 14 36 bd 47 c2 83 3d 79 49 01 3e
       -0.08880269 -0.044453066 0.0643354 0.12625684
0000b0 5f 33 f2 3d 90 b6 73 3d 4e bd 28 3e a3 c2 3d 3e
       0.118262045 0.059500277 0.16478464 0.1853128
0000c0 a3 9c e0 3d 5a 06 7f 3d ab f2 a9 3d cc 12 27 3d
       0.10967376 0.062261917 0.08298238 0.04078941
0000d0 3e 12 91 bc 4b 56 3a bd 1f 23 43 3e d8 9e 97 3b
       -0.017708894 -0.04549245 0.19056366 0.00462709
0000e0 2f c2 39 3e 31 e0 4e bd be 56 00 3e bb 6d 21 bc
       0.18140481 -0.050506774 0.1253309 -0.009852822
0000f0 41 93 04 3e 01 c6 cc 3d 95 7e 50 3e 86 1b 83 3b
       0.12946798 0.09998704 0.20360787 0.004001084
000100 18 d1 eb 3c 33 7d d6 bd 30 e0 55 3e ff 61 84 3d
       0.028786227 -0.104730986 0.20886302 0.06464004
000110 0e 7c 92 bc 05 ba 70 3d cf 29 b5 3d a0 ea d6 3d
       -0.01788142 0.058771152 0.08845865 0.1049397
000120 d6 1a db bc 5a 87 b6 bb 0d b3 d5 3d b7 c5 89 bd
       -0.026746195 -0.0055703344 0.10434542 -0.06727164
000130 2f 64 d4 3d 10 0c 36 3e b8 e6 c1 bd f5 26 17 3e
       0.10370671 0.17778039 -0.09467834 0.14760955
000140 f9 98 d3 bc f3 5e 01 3e 43 c9 cf 3c 8c 4f 50 3e
       -0.025829779 0.12633877 0.025364524 0.20342845
000150 af f4 61 bd 3a 01 2a 3e d2 2b 67 bd 76 34 9f b9
       -0.05516499 0.1660203 -0.056438275 -0.0003036593
000160 96 40 96 bd 19 dc 91 bc bc a4 ba bd 2b de e6 bd
       -0.073365375 -0.017805146 -0.09113452 -0.11272844
000170 99 29 0e bc 37 66 fb 3c 3f dd 0b 3e ea 58 48 3e
       -0.00867691 0.030688388 0.13658617 0.19565168
000180 2d 50 91 bd 3b d5 62 bc d8 ae e7 bd 02 92 8f bd
       -0.070953704 -0.013844783 -0.11312646 -0.07010271
000190 0f 8a 33 3e de 4f a7 3b 2b 9c 3c 3e d0 e5 28 3e
       0.17533134 0.0051059565 0.18418948 0.16493917
0001a0 0b ea 98 3c e3 48 93 bd 97 20 06 3e bc 56 55 3c
       0.018666288 -0.071916364 0.1309837 0.013021167
0001b0 59 7a 69 bd 3d 48 50 bd 0f b7 90 bd 2c 10 7e 3d
       -0.057001445 -0.05085014 -0.07066166 0.06202714
0001c0 63 8b 11 3e f4 0c 2c 3e 06 1c 90 3c e9 7c 08 be
       0.14213328 0.16801816 0.017591488 -0.133289
0001d0 85 0e b5 bd 6f 66 42 bd cb 33 24 3e 89 9c 36 3e
       -0.0884066 -0.04746097 0.16035382 0.17833151
0001e0 a1 65 e9 3c a4 35 89 3d e8 7d 84 3d 6f 37 ba bd
       0.028490843 0.06699684 0.06469327 -0.09092604
0001f0 c3 cd 12 be 2b d3 53 3d e4 5e 57 3c ba 3b 09 bd
       -0.14336304 0.051715057 0.013145182 -0.033504225
000200 ab 7e 72 3b f1 ec 89 bd f1 04 cb bd 14 bb ed bd
       0.003700177 -0.06734646 -0.09913052 -0.11607948
000210 3a f3 11 3e 70 d3 0a 3e c3 2c 58 3e 16 6e 12 3d
       0.1425294 0.1355722 0.21110825 0.035749517
000220 19 25 12 3e 87 bb 77 3b aa f7 3c 3d fa 38 c2 3c
       0.14271964 0.0037800984 0.04613463 0.02370881
000230 06 73 64 bd e1 78 8a bd e6 08 cc 3c 90 ac a1 bd
       -0.055773757 -0.06761337 0.024906587 -0.07894242
000240 7a f5 95 3d 52 21 ac bc eb fe c2 3d 6b 99 29 bd
       0.073222116 -0.021011982 0.09521278 -0.041406076
000250 e6 48 ee bd 46 c7 04 3d c1 4f 03 3e 47 db 44 3c
       -0.11634998 0.032416604 0.12823392 0.01201517
000260 19 2c 08 3d b2 e2 30 3e 1f 81 f5 bc 0b 75 9e 3d
       0.03324518 0.17273977 -0.029968796 0.07737168
000270 7d 51 ce bb 34 f9 fc 3d 41 9a df bd 9b 71 f6 3b
       -0.0062963353 0.12352219 -0.109180935 0.007520867
000280 59 11 a5 bd d6 79 12 3e 3f 57 f1 bc dc d2 13 bd
       -0.080599494 0.14304289 -0.029460547 -0.036089763
000290 ce 69 81 3d 80 b2 06 3c c6 0f 3f 3d be 53 22 bd
       0.06319009 0.008221269 0.046645902 -0.039630644
0002a0 0e 7e 38 3e ee 7e dd 3d 2a dd 88 bd b6 ce 80 3d
       0.18016836 0.108152255 -0.06682809 0.06289427
0002b0 d0 a0 b3 bd 42 ec db 3d 88 2f 5a 3d 00 d3 0e bd
       -0.08770907 0.10738422 0.053267986 -0.034869194
0002c0 de 15 1b 3c 08 e4 4a 3e db 3c f5 bc 06 5b c3 3c
       0.009465663 0.1981355 -0.029936245 0.023847114
0002d0 33 fa ea bd 3c a8 6e bd df de ac bc bf 5e 16 bd
       -0.11473503 -0.05826591 -0.021102367 -0.03671145
0002e0 bd 3a 12 bd 2b 43 67 3d fc c4 34 3e f7 e1 d5 bd
       -0.03570055 0.05646054 0.17653269 -0.1044349
0002f0 2d 0f 10 3e 1d 14 2c 3e a6 ff 84 bd 25 ab 10 3e
       0.14068289 0.16804548 -0.064940736 0.14127786
000300 e5 21 44 3d f5 e8 32 bd 88 ab 0b 3b 98 d7 01 3e
       0.047883887 -0.043679196 0.0021311957 0.12679899
000310 f4 fc 3c 3d 78 30 8e bd 72 0e 02 be 0d fa fe 3d
       0.046139672 -0.069428384 -0.12700823 0.12450037
000320 d0 54 88 3c f5 ec 41 3e 1f 00 d0 3b 5b 3b 16 3e
       0.016642004 0.18938048 0.0063476707 0.1467108
000330 be fb 51 3c fa 0c e6 3c 89 f9 49 3e c1 86 b2 bd
       0.012816368 0.02808236 0.19724096 -0.087171085
000340 f6 61 41 3e c3 c5 9c bd 57 8b a4 bd 4a a9 16 3e
       0.18885025 -0.076549076 -0.080343895 0.14713016
000350 39 23 e5 3b 85 a9 d7 3d 7a c7 89 bd 8e 7e 53 3c
       0.0069927243 0.1053038 -0.067275 0.012908591
000360 5c 9e 93 bd c0 4a 22 3e 11 7f 88 3c ea ff 17 be
       -0.07207939 0.15848827 0.016662152 -0.14843717
000370 a6 ec 29 3e 74 6c e4 3d 20 5b 0e 3e 5a a5 25 bd
       0.1659418 0.11153498 0.13901949 -0.040440895
000380 92 97 05 3e 87 f6 b0 3d ed 16 e9 3d 98 fc bf bd
       0.130461 0.08640771 0.11381326 -0.0937435
000390 cf 85 03 bd 69 82 5e 3c ab ef c5 bc e7 6c 7b 3d
       -0.03211003 0.013580897 -0.024162134 0.061383154
0003a0 bb a6 6c bd 96 be 3a 3e 0d d5 43 3e f6 ff d3 bd
       -0.057776194 0.18236765 0.19124241 -0.10351555
0003b0 d8 b8 31 3e d6 ec 6d bb 44 98 76 3d 06 82 45 3e
       0.17355669 -0.0036304495 0.060203806 0.19287881
0003c0 64 9a 1f 3e 07 0f c6 bd e8 30 1e 3e 4e 8e 69 bd
       0.15586239 -0.09670835 0.15448344 -0.057020478
0003d0 79 7c c2 bd 0e 4c 30 3e 88 b6 0e 3e ed 0e 3c bd
       -0.094963975 0.17216513 0.13936818 -0.04591267
0003e0 84 d2 3b 3e b6 87 b6 3d 74 5c 12 be b9 dd 62 3e
       0.18342024 0.089126036 -0.1429308 0.22154893
0003f0 10 d0 23 bc 07 88 2d be bc e7 3b bd 7c ba 47 3e
       -0.009998336 -0.16946422 -0.045875296 0.19504732

fc2.weight f4 [256, 256]
000000 c2 ac e5 3b 44 fd 08 3d 1b ec 06 bd 53 64 f3 3c
       0.0070091197 0.033444658 -0.03294001 0.029710924
000010 12 17 2c 3d 40 a1 34 3c 48 a8 a7 bc 5b c2 c6 3c
       0.04201419 0.011024773 -0.020465985 0.024262598
000020 ea 82 0a bd 77 2f 44 ba a0 bd 3f 3d c3 6d 6a bc
       -0.033816256 -0.00074838795 0.0468117 -0.014308396
000030 d9 3f be 3b 58 74 53 bd 3f 3b de 3c d8 99 2f bc
       0.005805951 -0.051624626 0.02712786 -0.010717832
000040 26 fa 19 3c 51 ca 69 3c c1 18 fb bc 90 dd 15 bd
       0.009398019 0.014269427 -0.030651452 -0.03658825
000050 7d 5c 6e 3d bb e5 74 3d 51 38 6f 3d 23 ad 86 3c
       0.058193672 0.0597894 0.058403317 0.01643998
000060 e5 c6 d0 3d fa 32 51 bd 2b 1e 5e 3b 00 da 61 3d
       0.10194186 -0.051074006 0.0033892493 0.05513954
000070 89 22 23 bb 20 cb c7 bb eb 71 59 3d 4a 85 e0 bd
       -0.002489241 -0.0060972124 0.053087156 -0.10962923
000080 54 7a db bc 14 df e8 bb 86 0f b9 3d c3 81 04 3c
       -0.026791729 -0.007106671 0.09036164 0.008087578
000090 04 bd 8c bd 27 fe ac 3c ae bc 62 bc 96 61 66 3d
       -0.06871989 0.021117283 -0.01383893 0.05624541
0000a0 97 28 b1 bc 2b f9 c1 3d 79 8e 19 3d fe 97 70 3d
       -0.0216258 0.09471353 0.03748939 0.0587387
0000b0 8e 94 f0 3d cf f5 7f bc bf 07 23 bb 4e 53 8a bd
       0.117470846 -0.01562257 -0.0024876443 -0.0675417
0000c0 8e bc 37 bd 8c 2b ab 3d 85 0d 15 3d 9c c6 09 3d
       -0.044857554 0.08357915 0.036389846 0.033636674
0000d0 bd fc 88 3c 9b 29 76 bd 52 9c 36 39 57 54 42 bc
       0.016722078 -0.06009827 0.00017415106 -0.0118609285
0000e0 98 b9 3b bd 00 06 ec bc c9 15 93 bc 58 fa b0 bc
       -0.045831293 -0.028811455 -0.017954724 -0.021603748
0000f0 fe 6a c1 3c bf b5 f6 3c 36 32 0a 3d 58 0e 23 bd
       0.023610588 0.03011596 0.03373929 -0.0398086
000100 34 89 fb 3c 8a 22 ef 3c 60 64 83 3d af 2c 52 3d
       0.030705072 0.029191274 0.064156294 0.051312145
000110 c9 ce b9 bc 8e 5c 95 bc af 02 63 bc e5 5d 9e bc
       -0.02268161 -0.01823261 -0.01385562 -0.019331882
000120 c9 f9 04 3e 98 23 90 bd 97 1e 46 bc ad c3 2e 3c
       0.1298591 -0.07038039 -0.012092254 0.01066677
000130 97 52 8f bc ad 8b f1 bc 89 cb bf 3c 83 c0 90 3c
       -0.017495437 -0.029485548 0.023412483 0.017669922
000140 4e 14 3a bc af a5 f5 3c 82 54 f3 3d 04 16 d1 bc
       -0.01135738 0.02998623 0.11881353 -0.025523193
000150 a5 98 82 3d cd 8a 1a bd 54 2d 45 bd 85 22 04 bc
       0.06376771 -0.037730027 -0.04813893 -0.008064871
000160 6b b9 7d 3d 32 15 22 bd 2a b9 b2 3b 4b f1 a0 3b
       0.061944406 -0.039570995 0.005454202 0.004911577
000170 2e 3a f5 bc e2 10 b0 3d ee 95 89 bd 1f 46 b4 3d
       -0.029934969 0.0859697 -0.0671805 0.08802437
000180 35 a3 04 3d 9a c2 3a bd bd 68 79 3d ab 79 36 bd
       0.03238221 -0.045595743 0.0608909 -0.044549625
000190 fe 90 05 3d a8 8b 0d 3d 08 1c 23 bc 2f ab 24 3d
       0.03260898 0.034557015 -0.009955414 0.040202316
0001a0 b7 7e ec bb 90 e9 c6 bd b3 bf f0 3c 30 27 0f be
       -0.007217254 -0.09712517 0.029388284 -0.13979793
0001b0 6d 80 04 3d 3e 8c cb 3d c1 13 e4 3c 60 60 1d bc
       0.03234904 0.099388584 0.02784145 -0.009605497
0001c0 22 42 12 bd 31 70 2c bc 61 27 4e 3d d7 30 60 3d
       -0.0357076 -0.010524795 0.050330523 0.054734077
0001d0 bb 2e 31 3d 42 60 9c 3d 6d 60 31 3d 84 18 43 3d
       0.043257456 0.07635547 0.04330485 0.0476308
0001e0 19 3c c2 3c 0d d1 82 3d 31 33 46 3d 99 68 4a 3d
       0.023710297 0.063875295 0.048388664 0.04941616
0001f0 c6 19 16 bc 2b f4 30 3d dc 4e 3e 3d ba 92 85 3b
       -0.009161418 0.043201607 0.046461925 0.004076329
000200 b5 8d 6a 3c 32 67 aa bc af 5c f8 3b 4c ca ec 3d
       0.014316012 -0.02080116 0.007579408 0.115620226
000210 eb 13 9d 3d 0a 02 4f bd 1f 8b bb 3c 05 19 1c bc
       0.07669815 -0.050539054 0.022893487 -0.0095274495
000220 35 1d ad bb 52 17 c5 3c ee c4 51 bc 79 94 52 3d
       -0.0052830228 0.024058972 -0.012803299 0.051411126
000230 50 82 82 3d 82 c4 20 3d 34 36 32 bd 81 29 8f bc
       0.063725114 0.039249904 -0.043508723 -0.017475845
000240 26 50 a3 3c 9b 3a 50 bc d4 60 b1 3c e6 4b 55 3d
       0.019935679 -0.012709285 0.021652617 0.052074336
000250 2f d9 78 bd d1 a5 00 3c c5 c7 2c 3d 0b 9c f6 3c
       -0.060753997 0.007852034 0.042182703 0.030103704
000260 f8 d2 a2 3d 6d c8 83 3d af 01 8b 3c 33 8f 92 3c
       0.07950395 0.064347126 0.016968576 0.017890548
000270 68 76 14 bd c3 fa ec bb 52 ae c9 3d 3b 2b 47 bd
       -0.036245733 -0.0072320416 0.09847702 -0.048625212
000280 1c 14 3d 3d 5a 40 00 bd 21 07 db bd 1c 19 d1 bc
       0.046161756 -0.03131137 -0.10694719 -0.025524668
000290 d1 5c 10 bd 9c 66 af 3c 7e 18 36 bd 38 c4 d9 3c
       -0.035244767 0.021411233 -0.04445695 0.026582822
0002a0 7a d9 48 3d 85 8a 39 3d 40 00 83 3d 15 97 5f bd
       0.049035527 0.04529812 0.06396532 -0.054587442
0002b0 b9 be 90 3d 86 d9 10 3d 5f 2a dd bc 48 17 ce 3d
       0.070676275 0.035363697 -0.026997743 0.10063034
0002c0 8d 88 02 3e 81 ca c3 3c 9d 82 0f bc f3 32 69 bd
       0.12747402 0.023900272 -0.008759168 -0.056933355
0002d0 16 bd e1 bc 2e b4 fe 3c aa ef f7 3d 9a af dc 3d
       -0.027555984 0.031091776 0.12106259 0.10775681
0002e0 25 e4 e9 3a 10 0b 15 bd e5 8b 71 3c 42 40 cb bc
       0.0017844482 -0.036387503 0.014742826 -0.024810914
0002f0 a1 20 92 bd d1 91 90 3d 21 0d 09 3d 95 86 7d 3d
       -0.0713513 0.07059062 0.033459786 0.061895926
000300 0a 44 9f 3d 2f bd cf 3c 6d df f9 3c 2d 3a 86 3d
       0.07776649 0.025358764 0.030502046 0.06554065
000310 9b 37 93 3d 07 b7 71 3d f2 be dd 3c 2a 08 9f bc
       0.0718834 0.05901244 0.027068589 -0.019413073
000320 07 a2 ac 3c c4 63 90 bc 51 ea 68 3c 6b 15 86 3c
       0.021073354 -0.017625697 0.014216022 0.016367635
000330 84 a0 19 3d 56 ba 52 bd 08 b0 f8 3b 4b 09 29 bd
       0.037506595 -0.051447235 0.007589344 -0.041268628
000340 5d 8d 0e bd 07 5c 36 bb 66 ab 29 3c 9a bd e5 3d
       -0.034802783 -0.0027825849 0.010355806 0.11217804
000350 b4 d6 34 3d 60 94 7e bd 63 f6 4a 3d e4 1b 93 3d
       0.04415007 -0.06215322 0.04955138 0.07183054
000360 45 3e 99 bc ee a4 4f bc 2b f1 d8 3c d0 0a 6e bd
       -0.01870645 -0.0126736 0.026482185 -0.05811578
000370 cd 78 86 3d ac ec 33 3d 08 1c 0f bd 00 bb ae bc
       0.0656601 0.04392688 -0.034938842 -0.021329403
000380 2d 2f 93 3d df 99 34 bd a3 62 66 bd b4 ae 08 3d
       0.071867324 -0.044092055 -0.05624641 0.033369735
000390 1c b1 92 bd 4f f6 7f 3d b6 af 98 bd 58 b2 a0 3d
       -0.07162687 0.062490758 -0.07455389 0.07846516
0003a0 26 d9 a2 3d 97 83 3f bb d8 66 94 3d 3b 80 6e bd
       0.07951574 -0.002922272 0.072461784 -0.05822776
0003b0 e1 67 04 3c 37 6a 05 3d 02 e6 05 bd dc 0c 17 3d
       0.008081407 0.032571997 -0.032690056 0.036877498
0003c0 d8 42 33 3d 7d 7b cd 3c 99 72 46 bc f2 07 90 3a
       0.04376492 0.025083298 -0.012112283 0.0010988696
0003d0 67 3f de bc 33 e1 33 bd 55 ed be 3d 4e 9c 7b 3c
       -0.027129842 -0.04391594 0.09322611 0.01535709
0003e0 9b fb 02 3d 1e 1d a5 3d fb 8b 39 bc 4f 97 88 bb
       0.03197823 0.08062194 -0.011324878 -0.004168428
0003f0 62 02 c6 3c b9 e1 16 bc c2 c0 13 bd c4 be e4 bd
       0.024171058 -0.00920909 -0.0360725 -0.11169198

fc2.bias f4 [256]
000000 85 a4 1d bd 76 ef 7b 3c 71 07 ea 3c 59 f1 18 bd
       -0.038486976 0.015376916 0.028568001 -0.037339542
000010 cf de 94 bc 06 d3 31 3d fd 3f 55 bd 5e 23 65 3d
       -0.01817265 0.04341414 -0.052062977 0.055941932
000020 06 f0 84 3d 96 df 86 3d b9 3f 09 3d 71 f3 4c 3d
       0.06491093 0.065856144 0.033508036 0.05003685
000030 e7 20 a1 3c 89 2f 21 3b 33 d6 1a 3d a7 d6 15 3d
       0.01966901 0.0024594984 0.037801933 0.03658166
000040 46 f0 1e bb 7d 0f 67 3d 26 26 45 3d 63 36 e7 bc
       -0.00242521 0.056411255 0.048132084 -0.028224176
000050 04 ab 9e 3a c7 f7 1b 3b 1c 3d c7 b9 c8 ce 7a bc
       0.001210541 0.002379881 -0.00038001768 -0.01530809
000060 82 0e 55 bd 99 ca a9 3d ea 2d 91 3d bb 2a 36 3d
       -0.05201579 0.082905956 0.070888355 0.044474345
000070 e6 0b b1 bb 11 4f 9b 3d 2b b5 14 bd b8 ee be bc
       -0.0054030297 0.0758344 -0.036305588 -0.02330719
000080 87 c0 c3 bc ec 51 7c 3c 36 d8 66 3d 3b 3d 49 3b
       -0.023895515 0.015400391 0.05635854 0.0030706662
000090 00 e8 75 3d 07 2f 39 bd 9c 90 a2 3d 07 b5 77 3d
       0.060035706 -0.045210864 0.07937738 0.060475376
0000a0 9f 54 1c bc 44 27 46 bc 27 c1 6f 3d 38 60 c3 bc
       -0.00954166 -0.012094323 0.058533814 -0.023849592
0000b0 e5 be 66 bb e7 78 a7 ba 8c 36 5d 3c 5e a4 22 bd
       -0.0035208997 -0.001277712 0.0135017745 -0.039707534
0000c0 fb 54 ac bc ba 67 6b 3c 28 68 28 bd d3 d3 93 3d
       -0.021036616 0.014367992 -0.041114956 0.07218137
0000d0 54 2d 50 3d 11 c5 39 3d 11 9f 5c bd 86 26 a4 bc
       0.05082448 0.045353953 -0.053862635 -0.0200379
0000e0 07 0f 1b bd 62 02 c7 3c e9 46 bc 3a b5 10 21 bc
       -0.037856128 0.024293128 0.0014364395 -0.009830643
0000f0 a3 c6 2b bd 69 d6 fd bb eb ce df bc 59 16 17 3d
       -0.04193748 -0.007746507 -0.027320346 0.036886547
000100 8c bc 47 3d ae 94 62 3d 07 a6 89 3d 08 45 2c 3c
       0.048763797 0.055317573 0.0672112 0.010514505
000110 be 60 be bc ec 2c 40 bd ae cf 22 3d e6 00 8f 3b
       -0.02323949 -0.04691784 0.03974884 0.004364121
000120 fb f5 45 3d d8 61 54 bc 55 82 90 3d e5 66 3b 3d
       0.04833029 -0.012962781 0.07056109 0.045752425
000130 b6 32 a3 3d 0e 10 9c 3d db 77 8a 3d ba 5c b4 3b
       0.07968657 0.0762025 0.06761142 0.005504218
000140 cd d8 95 ba ca 89 85 3d c9 a5 94 3d e5 c1 37 3d
       -0.001143241 0.06520422 0.072581835 0.044862647
000150 b3 26 99 bb 8e 7a 57 3d aa e2 33 3c 2a a3 86 3d
       -0.0046738028 0.05260711 0.010979334 0.0657409
000160 e9 af 62 3d 78 91 0f 3d 49 36 37 bd 08 80 ba bb
       0.055343542 0.03505084 -0.044729505 -0.005691532
000170 31 b1 88 3c 6d 48 1a bd 3f 1b 5e 3b 1f 3b f4 bc
       0.016686054 -0.037666727 0.0033890752 -0.029813347
000180 2c d9 9a 3c 5d 9d 5b 3d be 04 8b bc be cc 6e 3d
       0.018902384 0.05361687 -0.016970035 0.058300726
000190 c1 88 2f bd f7 00 33 3c 01 2a 1c 3d b3 8b 1e bd
       -0.042855028 0.010925523 0.038125996 -0.038707446
0001a0 77 10 85 bd 98 5f 95 3d 9d fc d7 bc 64 63 ad bc
       -0.06497281 0.07293624 -0.026365573 -0.021165557
0001b0 19 30 3f bd f5 fd e0 3c a3 c1 dd 3c 47 51 e4 3c
       -0.04667673 0.027464846 0.027069872 0.027870787
0001c0 5d 02 97 3c 4a c8 17 3c 3c 88 a9 3b c7 56 b8 bc
       0.018433744 0.009264061 0.005173711 -0.022502316
0001d0 9b f2 3c 3d 9a 56 ab 3d 90 3e ee bb 11 36 b3 3c
       0.046129804 0.08366127 -0.0072706416 0.021876367
0001e0 a7 f6 e5 3b 01 87 35 3d ac ea 5b bd c6 3e b1 bc
       0.0070179286 0.044318203 -0.053690597 -0.021636378
0001f0 ac 0d 63 3d 68 24 c4 3d f4 74 f0 3b 55 44 94 bb
       0.05543296 0.095772564 0.0073381606 -0.0045247474
000200 1f 40 56 3d 54 b1 e9 bc 38 bd 5c 3d 81 75 05 3b
       0.052307244 -0.02852694 0.05389139 0.0020364227
000210 c1 b2 e1 3c e3 e0 88 bd 3a 1f 7c bc 25 97 68 3d
       0.027551057 -0.06683519 -0.015388304 0.056784768
000220 e7 dd 5c bd ff f9 af 3c 35 b8 59 bd f2 cf 21 bd
       -0.05392256 0.021481512 -0.05315419 -0.039504953
000230 64 de 8d bd 2b 13 f3 bc f7 3c 97 bc 2d 76 bd bc
       -0.06927183 -0.029672226 -0.018461687 -0.02312764
000240 c9 6b 54 3c 3b 61 8c bc 4d b4 9b ba 9a e1 e3 3c
       0.012965151 -0.017136207 -0.0011879295 0.027817536
000250 d0 ce cb 3c 0f 35 16 bd 89 9f 83 3d 29 20 59 3d
       0.02487889 -0.036671694 0.06426913 0.053009186
000260 48 1b c5 bc f5 1b 50 3b 37 c3 e5 3c 4d c3 1d 3d
       -0.02406086 0.0031754945 0.028047187 0.03851633
000270 62 f1 7e bd 9a 14 90 3c d4 ac 2b bd 0a 0e 8b 3c
       -0.06224192 0.017587949 -0.04191287 0.016974468
000280 18 08 11 bd 21 1b 81 3d 56 4b 00 bd e1 cc 56 3d
       -0.03540811 0.063040026 -0.031321846 0.05244148
000290 15 c6 33 bd 08 d0 a8 3d 63 1f 9c 3d 34 2b 25 3c
       -0.043890078 0.08242804 0.07623174 0.010081101
0002a0 dd e9 65 3c 45 fb 1d 3d d3 29 8f 3c f6 a7 90 3c
       0.014032808 0.038569707 0.017475998 0.017658215
0002b0 ba 3f 85 3d 5f 91 4a bd bb da 83 3c 91 1e 00 3d
       0.065062955 -0.049455043 0.01609551 0.03127915
0002c0 72 b8 6e 3d 1a 2d e1 3c 6b 4c 64 3d 53 07 42 3d
       0.05828137 0.027487326 0.05573694 0.047370266
0002d0 8a fe 5d 3c 6f 7c 09 bd 7d b6 87 3d 70 38 6c bc
       0.013549456 -0.033565935 0.06626604 -0.014417753
0002e0 72 02 44 bd 70 e0 23 bd 87 d6 5e 3d 36 c7 43 3d
       -0.047853895 -0.040008962 0.054403808 0.047797404
0002f0 7e ce c7 3c ba 3d 58 bd 32 a7 4d bd d8 88 89 bc
       0.024390455 -0.052793242 -0.050208278 -0.016788885
000300 7c 28 40 bd ba d0 24 bc aa 67 97 3d 3d a6 c4 bc
       -0.04691361 -0.01005953 0.07392819 -0.02400505
000310 94 06 12 3d c3 c6 1e 3d c0 4f 7a 3d 0d 3f 31 bd
       0.035650805 0.038763773 0.06111121 -0.04327302
000320 3a 6e 1f 3d 1b 5e c1 3c 79 27 05 3c 82 f6 e9 bc
       0.03892348 0.023604443 0.008127087 -0.028559927
000330 a4 36 c1 bc bd 85 2a 3d 02 3c 9a 3d 6c df 84 bb
       -0.023585625 0.04163145 0.07530977 -0.0040549543
000340 0d a6 56 bd 7a d9 3e bc 21 8f d4 bb 80 5d 5b bd
       -0.052404452 -0.01164853 -0.006486789 -0.053555965
000350 94 0e 6a 3d 43 fd bc 3c 53 06 cd bc 86 8c a9 bc
       0.05714281 0.023069983 -0.02502743 -0.02069689
000360 66 1d 56 bd ba 8f ff bc d6 0b 06 3d 02 14 95 bb
       -0.05227413 -0.031196464 0.03272613 -0.0045495043
000370 85 f6 d8 bc 2f b1 4f bd f5 cb 96 3c 2f 0b 52 3d
       -0.026484737 -0.050706085 0.018407801 0.051280197
000380 04 1b 16 bc 7d fe 93 bc 63 5c 8c 3c ee 30 07 bb
       -0.009161714 -0.018065685 0.017133897 -0.002062853
000390 bb a0 55 3d 18 f7 5a bd c0 b5 ca bc e0 33 69 3c
       0.052155238 -0.053458303 -0.024744868 0.014233559
0003a0 0c 31 2d 3d 7c de 32 3c 54 98 34 bd 94 bd cc 3c
       0.042283103 0.010917302 -0.044090584 0.024992742
0003b0 21 0e f1 3c d8 b6 f5 bc 12 34 30 bb d4 35 5c 3d
       0.029425683 -0.029994413 -0.0026886505 0.053762272
0003c0 0c bb 60 3c e1 d6 1f 3d cb 0f c0 3c e6 e1 11 bc
       0.01371647 0.039023284 0.02344503 -0.008903956
0003d0 55 d9 5c 3d 43 96 29 ba e9 31 19 3d e8 e3 79 3d
       0.0539182 -0.0006469229 0.037401114 0.061008364
0003e0 87 39 bb bc 86 0c d5 bc 09 49 2f 3d 24 00 51 bd
       -0.02285458 -0.026006948 0.04279426 -0.051025525
0003f0 84 f5 27 3d 51 82 7e bd 0c d1 a7 bc 8e 6a 64 3c
       0.041005626 -0.062136 -0.020485424 0.01394142

fc3.weight f4 [10, 256]
000000 b7 93 27 bd 48 e6 be bc 69 a6 19 bc 4d f1 1c bd
       -0.040912356 -0.023303166 -0.009378054 -0.03831606
000010 f2 b9 2e bd b0 c8 6f bb 17 68 90 bd 6f 88 77 3d
       -0.0426578 -0.0036588125 -0.070511036 0.060432848
000020 7e 2c 5d bd 4a 2d 19 3d df 2c 0c bd 92 0f 34 3d
       -0.05399751 0.037396707 -0.03422248 0.04396016
000030 70 a8 ae bd 72 b2 9d bc 4b 45 29 3d 09 7e 2d bc
       -0.08528221 -0.019250128 0.04132585 -0.010589131
000040 a8 d0 2e 3d bd 0f f7 bd b3 b6 3f 3e 5b ca 5d bd
       0.04267946 -0.12063549 0.18722038 -0.05414806
000050 b2 fd 23 3e 4b ea 55 3c 6c f3 e2 bd 6e e9 12 bd
       0.16014746 0.013056348 -0.11081585 -0.035867147
000060 9c 87 72 bd fd 8e 1a bd b0 b0 a6 bd 3e 38 a9 3d
       -0.05921136 -0.03773402 -0.08139169 0.082626805
000070 29 73 20 bd ae 17 58 bc fc 1b 2d 3c 00 4c 1a 3e
       -0.039172325 -0.013189239 0.010565754 0.15068054
000080 70 1a bf 3d b4 13 48 3d e3 5b c2 3d c2 8e 8f bc
       0.093312144 0.048846915 0.09490182 -0.017524127
000090 63 87 09 3d 17 9a 6b 3b e1 74 bb 3c f3 20 86 bd
       0.03357638 0.003595 0.02288288 -0.06549253
0000a0 b9 d2 e8 bc a8 b5 b3 3d e0 8e c9 3d 96 ae 65 bd
       -0.028420793 0.087748826 0.09841704 -0.0560747
0000b0 8b 38 aa ba d9 15 c6 3c ee 1f d0 bc fc 05 9e 3d
       -0.0012986822 0.02418034 -0.02540585 0.07715985
0000c0 7c 96 18 bd 14 cc 84 bd a0 c8 c5 3c 4c d7 2e bd
       -0.037252888 -0.06484237 0.024143517 -0.04268579
0000d0 e7 d0 06 bd 22 61 16 bd d4 d9 fa bc dd 2d 8e bc
       -0.03291407 -0.036713727 -0.030621447 -0.017355854
0000e0 6b a2 00 bd f8 24 d7 3c 48 7e 8c 3b ad 37 a0 3c
       -0.031404894 0.026262745 0.004287515 0.019557798
0000f0 e0 84 74 3d ff 91 cb 3d 81 bc 4c 3d 7b 49 04 3e
       0.059697032 0.09939956 0.04998446 0.12918656
000100 b6 00 85 bd aa 48 3a 3d 58 c3 84 3d a6 c0 d0 3c
       -0.06494276 0.045479454 0.06482571 0.025482487
000110 7e a0 25 3e a2 1c a5 bd 49 16 8e 3b 09 0b 2c bc
       0.16174504 -0.08062102 0.0043361527 -0.010500678
000120 3f da fe 3c f7 85 07 3e f8 e1 d5 3d 9d 08 42 bd
       0.031109927 0.13234697 0.10443491 -0.047371496
000130 d5 78 09 3e 4c 1b 59 bc fa b9 28 3d e8 1f 73 bd
       0.13425 -0.013251137 0.041192986 -0.0593566
000140 ad 3b a3 bd 11 f9 9c 3d 78 cd 70 bd 75 7f 7a bc
       -0.079703666 0.07664693 -0.0587897 -0.015289177
000150 81 4b 92 bd 87 52 03 bd e4 bf 49 3d 5c 1d 8d 3d
       -0.071433075 -0.032061126 0.049255267 0.068903655
000160 77 57 81 bc ed 76 c0 bd 69 b0 0b 3c f5 43 eb 3d
       -0.015788777 -0.09397683 0.008525946 0.11487571
000170 d2 aa 55 3d de ff 70 bd ad 96 19 bd 0d 59 01 bd
       0.05216486 -0.058837764 -0.03749721 -0.031579066
000180 eb 56 7b bd 7b d5 cf 3d f1 59 37 3d 9d 99 b1 3d
       -0.06136219 0.1014814 0.04476351 0.086718775
000190 77 46 56 3d f4 fd 1d 3d ee b0 8a 3d d6 65 e7 3c
       0.052313294 0.038572267 0.06772028 0.028246801
0001a0 ad 49 29 3d 0f c4 ee 3d 45 d7 96 bc 72 b3 5b 3d
       0.04133003 0.11658489 -0.018413195 0.05363793
0001b0 7e bc 20 3c 58 63 94 3d f0 9c 21 3e 5f cc 59 3e
       0.009810565 0.07245511 0.15782523 0.21269368
0001c0 78 6e 96 bd 77 7f bb 3c e4 4b d1 bc 4b fa ac 3d
       -0.07345289 0.022887928 -0.025548883 0.08446177
0001d0 44 d1 00 3d f4 a3 dc 3d d3 c0 6d bd 8a c1 9d 3d
       0.03144957 0.10773459 -0.05804522 0.0770293
0001e0 68 6c 1e bd 01 a1 66 3d c8 64 af bc 8e 83 a8 3d
       -0.038677603 0.05630589 -0.021410361 0.08228217
0001f0 b2 6c 03 bd 42 2c 55 bd 93 d9 75 bc 68 25 04 3e
       -0.03208608 -0.05204416 -0.015005487 0.12904894
000200 1d 75 7f 3d a0 2f 20 3e 0f d3 86 bc 9b d7 f6 3d
       0.062367547 0.15643167 -0.016458062 0.12052842
000210 88 fb 0d 3d bc 92 52 bd d0 8c 09 3d d8 53 f1 bc
       0.034663707 -0.051409468 0.033581555 -0.029458925
000220 31 d9 62 bd 27 0d 24 bd 73 d2 b5 bd ca 4a ba 3d
       -0.05538291 -0.040051606 -0.08878031 0.09096296
000230 0f ae b0 bd 3a 51 99 bc 8b d9 8f bd 38 97 62 3d
       -0.08626949 -0.01871549 -0.07023915 0.055319995
000240 50 de bd bd f3 9c 10 bd e8 f2 bf bc 22 2e 41 3d
       -0.09270918 -0.03530593 -0.023431256 0.047163136
000250 e4 b7 7a bd a9 6b 95 bd 63 68 b9 bc b5 0d cc 3d
       -0.061210528 -0.07295925 -0.022632783 0.09963552
000260 ab 10 ba bd f8 04 f3 bc a8 41 5c 3e 51 18 d0 3d
       -0.090852104 -0.029665455 0.21509421 0.10160888
000270 1c 41 70 bd 18 6d 30 3c ec dd 37 3d 5f 9b e7 3c
       -0.058655843 0.0107681975 0.044889376 0.028272329
000280 36 ea 03 3d f1 eb aa 3c 1c 94 ad 3c 55 9e 0c 3d
       0.032205783 0.020864459 0.021188788 0.034330685
000290 ea 4f eb 3d 44 4f 4e 3d a1 39 a0 3c 9e 9a 68 3e
       0.11489852 0.050368562 0.01955873 0.22715232
0002a0 67 d2 4f 3d 3a 50 c6 3b 7b df 63 bd 21 63 5c 3d
       0.050737765 0.006052044 -0.05563305 0.053805474
0002b0 e9 18 34 3e ad b6 ea 3c ae 1b 16 bb 34 a5 f4 3c
       0.17587627 0.02865156 -0.0022904682 0.029863931
0002c0 18 ea 3f 3d 0c bd dc 3d 7b aa f3 3d 21 af c5 3d
       0.04685411 0.10778245 0.11897751 0.09652544
0002d0 c6 d5 87 bd ff ed 8c bd 25 30 23 3d e8 ff eb 3d
       -0.06632571 -0.06881332 0.039840836 0.115234196
0002e0 d2 18 6b bd f7 3c c6 bd 42 9e 9c 3d 47 d5 0c 3e
       -0.057396717 -0.09679597 0.07647373 0.13753234
0002f0 7b 3c 8c 3c 15 33 8f bd e4 5b 89 bd 4d 31 88 bd
       0.017118683 -0.06992165 -0.0670698 -0.066500284
000300 52 cb 53 3d 08 d8 ed 3d 0e 6c 4d 3d 2e ac 82 3d
       0.051707573 0.1161347 0.050151877 0.06380497
000310 cb ab 3f 3d 6f 20 43 bd a6 eb 19 3e 4a 08 64 3c
       0.046794694 -0.047638353 0.15031299 0.013917992
000320 c6 21 28 bd 45 43 ac bd 8a 86 89 3d 53 64 27 3d
       -0.041047834 -0.08411268 0.067151144 0.04086716
000330 4a af 2f 3a d0 4a 39 3c b0 96 ba 3d 19 b3 df 3d
       0.00067018403 0.011309341 0.091107726 0.10922832
000340 5a 65 91 3d 11 46 88 bd fe 63 d3 3c 80 c4 ff 3a
       0.070994094 -0.06653989 0.025804516 0.0019513518
000350 fe f0 51 3c 0c 3f 0e bd f6 01 2c 3d 24 6e 6f bd
       0.012813805 -0.034728095 0.041994058 -0.058454648
000360 95 10 a5 3d 12 1d 9f 3d ce a1 a1 bc e5 4e c5 3d
       0.080598034 0.077692166 -0.019730475 0.096341886
000370 2f a8 9f bc bd 07 bb bc ae 84 75 3d ec 69 bb 3d
       -0.019489376 -0.022830838 0.059940986 0.09151062
000380 c8 fb 84 3d 01 69 a7 3d 93 12 75 bd b4 08 e5 bd
       0.06493336 0.08174325 -0.059832167 -0.111833006
000390 43 ef 5b 3d b0 37 a6 bd 06 83 6a bd ce 38 6b bd
       0.053694975 -0.0811609 -0.05725386 -0.05742722
0003a0 61 74 71 3b b1 e5 f6 3c f9 11 5a bd ab 7e a8 3d
       0.003684305 0.030138822 -0.053239796 0.08227285
0003b0 9a 97 40 3d 5f 13 88 bb ec 01 73 bd e4 51 be 3d
       0.04701958 -0.0041527 -0.059328005 0.09292963
0003c0 2e 9b a0 bd 80 95 8e 3d b9 db 1b 3c 9e f7 dc bc
       -0.07842098 0.069621086 0.009512835 -0.026973542
0003d0 47 9b 62 bc 89 c2 63 3b 06 5b 03 3d d2 28 b6 3d
       -0.013830966 0.0034753403 0.03206923 0.088945046
0003e0 3d ca f2 3c 84 3b ff bd 50 56 e3 bb 25 41 a7 3c
       0.02963745 -0.124625236 -0.0069377795 0.020416806
0003f0 7d e5 21 bd 30 e8 db bb 13 17 bb 3d 89 d5 fb bc
       -0.039525498 -0.0067110285 0.091352604 -0.03074147

fc3.bias f4 [10]
000000 32 1b 98 bc 54 fa b6 bc ac ef 44 bc a5 64 9f bc
       -0.018567655 -0.022336163 -0.012020033 -0.01945717
000010 0c c7 48 3d 81 12 89 bd 02 cf e3 bc da 19 30 3d
       0.04901795 -0.066929825 -0.02780867 0.042993404
000020 17 fa ae 3c 48 52 9e bc
       0.021359487 -0.019326344
