dqn_checkpoint_v.pth (torch, 311583 bytes, 6 tensors)

fc1.weight f4 [256, 34]
-0.16480759 0.0579274 -0.10802755 -0.27994755 -0.08380792 0.007015429 -0.016244138 -0.10267204
-0.17469451 -0.04469449 -0.03396369 -0.22837621 0.09513946 -0.097035885 -0.09570134 -0.07332658
0.19850895 -0.00052618154 -0.0026888233 -0.13461092 0.1465186 -0.04724621 0.12511411 -0.13854791
0.22701395 0.23294574 0.32023942 0.22253369 0.24859716 0.18337086 0.15477653 0.18075764
0.1781654 0.15746294 0.10532771 0.017721588 0.06636876 0.30681863 0.3218022 0.18281966
-0.036285803 -0.17565092 -0.01810923 -0.08274122 -0.07678111 0.07718565 0.042932134 0.17031457
0.122675836 0.22758393 0.28475493 0.2507761 0.29777098 0.28449625 0.21344078 0.14311308
0.2939524 0.25652057 0.006254402 -0.11729152 -0.118631266 -0.08995294 0.13049376 0.025665676
-0.1173377 -0.026607076 0.22774045 -0.1346151 0.010618673 0.17885631 -0.12365236 0.016632278
-0.1351135 0.022339778 0.117822476 0.0094316285 0.14822254 0.13702658 0.20190245 -0.14067136
0.103440605 -0.092706785 -0.124190934 0.07440162 0.17056356 -0.016634122 -0.14799534 -0.2162307
-0.01282987 0.14977816 0.08711375 -0.26396748 0.2914717 0.2972685 -0.04583204 -0.06360416
-0.26832494 -0.102941796 -0.088805944 0.121217854 -0.03543933 0.21257909 0.33511904 -0.21218903
-0.056937322 0.28145882 0.25648355 -0.012498284 -0.1345693 -0.16714875 -0.06401012 0.09591653
0.02001592 0.047503497 0.15532698 -0.15181053 0.026547518 0.28289098 0.21800661 0.10562629
0.009615552 -0.026150146 -0.019334475 0.33937812 0.22539772 0.2503588 0.04673235 -7.015285e-05
0.065051496 -0.17675066 -0.2510779 -0.03586189 0.032530174 -0.25431195 0.2066625 0.04156331
0.19729832 -0.11372465 0.28630245 0.4597119 0.28031504 -0.08865829 0.18970436 -0.12947434
0.19442582 -0.28429994 -0.18485129 -0.1556145 -0.21429035 -0.21116823 0.12666959 0.23282586
0.12953846 0.006951849 0.11126256 0.03564811 0.11292483 0.29435894 -0.026252588 0.21768455
-0.053343944 -0.1367056 0.014430864 -0.16930124 0.30969313 -0.018112011 -0.24652909 -0.06745144
0.1608014 -0.20947146 0.1979236 -0.020895284 -0.0340375 0.25952765 0.21718112 0.16706525
0.09919209 0.1912807 0.040181115 -0.11608688 -0.36110696 -0.037158843 -0.015089006 0.11421162
0.090301454 0.23801582 0.057696633 -0.015425297 0.18397075 0.19947307 0.18924196 0.18331827
0.31658617 0.16937074 -0.09470159 -0.19708735 -0.23988678 -0.08798012 0.042606115 -0.14180732
-0.33989155 -0.40958524 0.153357 0.025599819 0.18735234 -0.23202787 0.2949022 0.09962765
-0.032738328 -0.06969921 -0.18492986 0.15639251 0.11793004 -0.3713919 -0.14694674 0.030214282
0.0022083283 0.022920022 0.23722084 0.07368593 0.229145 0.12856159 0.07204152 0.18863308
0.11703077 0.03134105 -0.1518777 0.05828171 -0.305969 -0.4272184 -0.44396868 -0.40140185
0.018419413 -0.030180896 -0.10824379 -0.19815567 0.045647934 0.31902224 0.156277 -0.14793688
0.021366583 0.124631114 0.19466038 -0.08587973 -0.023822475 -0.02342158 0.10033017 -0.27748764
-0.15020521 0.18259019 0.066101275 0.11384239 -0.056945696 0.29113555 0.19189842 0.06500953
00000000: 52c3 28be 4845 6d3d 8c3d ddbd 4955 8fbe
00000010: 7da3 abbd afe1 e53b 6d12 85bc b845 d2bd
00000020: 1ee3 32be 9211 37bd 831d 0bbd 74db 69be
00000030: 7ad8 c23d c0ba c6bd 10ff c3bd 3f2c 96bd
00000040: ee45 4b3e 72ef 09ba f836 30bb 72d7 09be
00000050: f908 163e 3e85 41bd ea1d 003e 81df 0dbe
00000060: 5876 683e 5489 6e3e 6cf6 a33e dfdf 633e
00000070: 4190 7e3e 92c5 3b3e bd7d 1e3e 8818 393e
00000080: fe70 363e f73d 213e 0eb6 d73d dd2c 913c
00000090: 58ec 873d 5517 9d3e 42c3 a43e 1435 3b3e
000000a0: 6ca0 14bd d6dd 33be cf59 94bc 3b74 a9bd
000000b0: 6a3f 9dbd 8313 9e3d 9bd9 2f3d f166 2e3e
000000c0: 783d fb3d c30b 693e 66cb 913e ba65 803e
000000d0: 7075 983e 7ea9 913e 3890 5a3e 3c8c 123e
000000e0: ee80 963e aa56 833e baf1 cc3b 8936 f0bd
000000f0: f3f4 f2bd 3f39 b8bd 28a0 053e d340 d23c
00000100: c04e f0bd 15f7 d9bc cb34 693e 8ad8 09be
00000110: f1f9 2d3c 1c26 373e 733d fdbd 6a40 883c
00000120: 315b 0abe e901 b73c e94c f13d 1e87 1a3c
00000130: a6c7 173e b250 0c3e 84bf 4e3e 270c 10be
00000140: abd8 d33d 0edd bdbd d157 febd e05f 983d
00000150: 37a8 2e3e 4844 88bc 178c 17be 956b 5dbe
00000160: 6034 52bc 725f 193e b268 b23d bf26 87be
00000170: c73b 953e 9433 983e 61ba 3bbd e642 82bd
00000180: e361 89be 26d3 d2bd e4df b5bd 1141 f83d
00000190: d528 11bd 55ae 593e b994 ab3e 1548 59be
000001a0: 1c37 69bd 5f1b 903e d051 833e 9ac5 4cbc
000001b0: 89cc 09be 0b29 2bbe bd17 83bd e36f c43d
000001c0: 6df8 a33c 0793 423d 090e 1f3e 3874 1bbe
000001d0: 2e7a d93c 16d7 903e 203d 5f3e 9952 d83d
000001e0: 8c8a 1d3c d538 d6bc 5563 9ebc f8c2 ad3e
000001f0: a9ce 663e 072f 803e 6c6a 3f3d 061f 93b8
00000200: b839 853d 20fe 34be 488d 80be ebe3 12bd
00000210: 5c3e 053d 2d35 82be 569f 533e 4a3e 2a3d
00000220: 9208 4a3e 78e8 e8bd 3c96 923e 5c5f eb3e
00000230: 7485 8f3e 7a92 b5bd dc41 423e ec94 04be
00000240: 9017 473e c38f 91be a849 3dbe 6859 1fbe
00000250: ee6e 5bbe 7c3c 58be acb5 013e e769 6e3e
00000260: bba5 043e 56cc e33b a0dd e33d c103 123d
00000270: 2245 e73d 37b6 963e ab0f d7bc b3e8 5e3e
00000280: 2e7f 5abd 8efc 0bbe 6e6f 6c3c 4e5d 2dbe
00000290: 1990 9e3e a45f 94bc 1f72 7cbe fb23 8abd
000002a0: 1fa9 243e b07f 56be 7cac 4a3e 962c abbc
000002b0: e86a 0bbd cfe0 843e ba64 5e3e 2713 2b3e
000002c0: 3925 cb3d 16df 433e f494 243d f5be edbd
000002d0: 03e3 b8be df33 18bd e137 77bc c8e7 e93d
000002e0: f8ef b83d 6bba 733e 4e53 6c3d 63ba 7cbc
000002f0: d462 3c3e ab42 4c3e a5c8 413e c9b7 3b3e
00000300: 9517 a23e 866f 2d3e e8f2 c1bd 44d1 49be
00000310: e1a4 75be ec2e b4bd c083 2e3d f035 11be
00000320: 4406 aebe 28b5 d1be 9e09 1d3e b6b6 d13c
00000330: 4bd9 3f3e b798 6dbe 6cfd 963e 9509 cc3d
00000340: a018 06bd 76be 8ebd 415e 3dbe 5c25 203e
00000350: 4e85 f13d 1427 bebe 3579 16be f183 f73c
00000360: 9ab9 103b c5c2 bb3c 05ea 723e a6e8 963d
00000370: fda4 6a3e a6a5 033e 818a 933d 0829 413e
00000380: d4ad ef3d 795f 003d d485 1bbe cdb8 6e3d
00000390: f8a7 9cbe 5fbc dabe dd4f e3be 8b84 cdbe
000003a0: 4fe4 963c ed3d f7bc ecae ddbd 52e9 4abe
000003b0: 54f9 3a3d e256 a33e 1407 203e c47c 17be
000003c0: f908 af3c 993e ff3d 0d55 473e b6e1 afbd
000003d0: 5a27 c3bc 9dde bfbc e779 cd3d dc12 8ebe
000003e0: 65cf 19be ecf8 3a3e 1b60 873d 3326 e93d
000003f0: e43f 69bd b80f 953e 0581 443e b723 853d

fc1.bias f4 [256]
0.093176804 -0.0408334 -0.022167496 -0.023684667 0.11116931 -0.18001439 -0.065556265 0.15080045
-0.14371754 -0.06801133 0.14075832 0.061107647 0.19979489 -0.019198338 0.028546676 0.18688934
0.09665442 0.15674235 0.06823221 -0.023844944 0.1678657 0.027994853 -0.17134759 -0.09539645
0.039030112 0.011501056 0.0071246326 0.2025957 0.04439145 -0.123737656 0.046400238 -0.008614923
-0.06173891 -0.037015133 0.19064334 -0.13579158 0.12409581 0.07205841 0.1586675 0.093466766
0.02227659 -0.015511089 -0.16051395 0.027308159 0.1872305 -0.114700206 -0.05899235 0.08340061
0.26825187 0.17445967 0.118040286 -0.025255373 -0.013243429 -0.02819863 0.19262403 -0.017540783
0.14881557 -0.14072941 -0.02811598 0.15719217 -0.060227096 0.05555289 0.008212791 0.062565275
0.013931889 0.14039041 0.00617129 -0.115006074 0.00872504 -0.24590267 -0.027901968 0.031159097
0.24333625 0.18821752 0.14226405 0.18445103 0.09306708 0.14437678 0.037882835 -0.14703122
-0.025051717 -0.073199384 0.16215394 -0.11138841 0.08034863 0.055934668 -0.1315317 0.081630684
-0.06083738 0.18796198 0.13929987 0.07771251 0.23674625 0.02293612 -0.04126651 0.24578029
-0.03677284 -0.052692782 0.15005426 0.14022103 0.094700254 0.14067881 0.14712878 0.09461065
-0.061020337 -0.096006446 -0.065469846 0.31225753 0.17754205 0.18109456 -0.11575442 -0.112829104
-0.19853863 -0.038223255 0.006078744 0.059757464 -0.15593031 0.08633989 0.12349935 0.00045101377
0.065821715 0.01457721 0.07206614 0.09710266 -0.0838497 0.15546942 0.12270606 -0.10726469
-0.021368688 -0.01012936 0.17402071 -0.0022397237 -0.08807853 0.16600093 0.17596364 -0.14222018
-0.13653594 0.018843118 -0.04850164 -0.15481125 0.06391079 0.074383646 0.16592938 -0.0011876156
0.13530928 -0.123551056 0.15519226 0.027253164 0.05977883 0.006483507 0.12663919 0.013160168
0.09045156 0.052425954 -0.14417556 0.10709882 -0.056437925 -0.02702744 -0.08240596 0.004567576
0.12183947 -0.036429744 0.034999024 0.12846714 -0.038238067 -0.098963894 0.1677919 -0.09240855
-0.009419009 0.11888726 -0.10228202 0.31109405 -0.13180989 0.16469269 -0.06549917 0.053695202
0.15900558 0.27465707 0.078216806 -0.017526234 -0.0054368176 -0.0028116377 0.024603097 0.15598354
0.17716025 -0.11383697 0.1781007 0.21997972 -0.21092188 -0.060849953 0.07340764 -0.07874582
-0.08769753 0.090652555 0.07322974 0.17548561 0.21193603 -0.09586755 0.30588588 0.12772869
0.14066131 0.13127534 -0.18676542 -0.10667108 0.1046372 0.03125001 -0.05803596 0.012066749
-0.22056757 0.083684936 0.10835443 0.2746993 0.11358433 -0.027183842 -0.14090446 -0.005412921
-0.050399177 0.16374569 0.19092341 -0.0961844 -0.10253633 0.06718946 -0.006085222 -0.16143326
0.19242021 -0.010316497 -0.09132703 0.15333559 0.2150622 0.06440922 0.012517094 0.10136371
-0.06247247 -0.007821949 0.16192815 -0.1783677 0.077309564 0.17244574 -0.15993492 0.23827171
-0.011296049 -0.09409718 0.0501697 -0.08789529 -0.1611157 -0.058830827 0.092825465 0.13275445
0.04814777 -0.019372603 0.098473676 0.075265884 0.07757834 -0.04283304 0.11938818 -0.036036942
00000000: 7bd3 be3d ec40 27bd 9c98 b5bc 5906 c2bc
00000010: bcac e33d b155 38be 5d42 86bd 6f6b 1a3e
00000020: b12a 13be 8649 8bbd f322 103e 034c 7a3d
00000030: 0897 4c3e d545 9dbc b8da e93c eb5f 3f3e
00000040: c1f2 c53d 1181 203e 54bd 8b3d 7956 c3bc
00000050: fce4 2b3e 7655 e53c be75 2fbe 375f c3bd
00000060: 0ade 1f3d ed6e 3c3c c075 e93b 3f75 4f3e
00000070: cfd3 353d 2b6a fdbd 2d0e 3e3d 9b25 0dbc
00000080: f0e1 7cbd 2e9d 17bd 0238 433e f30c 0bbe
00000090: f225 fe3d 5c93 933d bc79 223e 816b bf3d
000000a0: 657d b63c 3922 7ebc c55d 24be 5cb5 df3c
000000b0: 5ab9 3f3e f1e7 eabd f6a1 71bd f0cd aa3d
000000c0: 4f58 893e 8ea5 323e 1bbf f13d 5be4 cebc
000000d0: f8fa 58bc d000 e7bc 3c3f 453e b0b1 8fbc
000000e0: 1c63 183e 5f1b 10be 7c53 e6bc fcf6 203e
000000f0: b0b0 76bd 6d8b 633d f18e 063c 3922 803d
00000100: 9442 643c 81c2 0f3e 8838 ca3b 4e88 ebbd
00000110: 78f3 0e3c e9cd 7bbe ab92 e4bc 5d41 ff3c
00000120: 232d 793e 18bc 403e abad 113e bbe0 3c3e
00000130: f499 be3d 82d7 133e 082b 1b3d 5a8f 16be
00000140: 4239 cdbc 8fe9 95bd af0b 263e 9b1f e4bd
00000150: d38d a43d c01b 653d 3fb0 06be fd2d a73d
00000160: 9e30 79bd 1b79 403e a0a4 0e3e bd27 9f3d
00000170: 9c6d 723e 88e4 bb3c 1207 29bd d4ad 7b3e
00000180: 1e9f 16bd 63d4 57bd d3a7 193e 1a96 0f3e
00000190: 35f2 c13d 1b0e 103e eda8 163e 3ac3 c13d
000001a0: 76f0 79bd 079f c4bd 0e15 86bd 38e0 9f3e
000001b0: 95cd 353e da70 393e a710 edbd f212 e7bd
000001c0: b64d 4bbe fd8f 1cbd 3330 c73b 3ec4 743d
000001d0: 32ac 1fbe f8d2 b03d 3aed fc3d 0b76 ec39
000001e0: 89cd 863d 40d5 6e3c 6a97 933d c2dd c63d
000001f0: 64b9 abbd 6033 1f3e 514d fb3d 97ad dbbd
00000200: 630d afbc 9df5 25bc 7c32 323e 54c8 12bb
00000210: 8462 b4bd 26fc 293e d02f 343e 2ba2 11be
00000220: 14d0 0bbe e25c 9a3c a8a9 46bd d786 1ebe
00000230: a9e3 823d 7456 983d 64e9 293e c4a9 9bba
00000240: 848e 0a3e 5608 fdbd b8ea 1e3e 0742 df3c
00000250: a5da 743d 9973 d43b b4ad 013e bf9d 573c
00000260: ab3e b93d 99bc 563d c2a2 13be a056 db3d
00000270: 742b 67bd a668 ddbc 75c4 a8bd 9bab 953b
00000280: f986 f93d 5b37 15bd 235b 0f3d e48c 033e
00000290: 859f 1cbd 95ad cabd a4d1 2b3e b240 bdbd
000002a0: 3052 1abc 2a7b f33d 3c79 d1bd b847 9f3e
000002b0: 2cf9 06be 33a5 283e 6e24 86bd 80ef 5b3d
000002c0: 5cd2 223e da9f 8c3e 2230 a03d 2d93 8fbc
000002d0: 5527 b2bb 7443 38bb 6f8c c93c 26ba 1f3e
000002e0: 7f69 353e 5b23 e9bd 0860 363e 5d42 613e
000002f0: e8fb 57be cd3d 79bd bf56 963d 7d45 a1bd
00000300: c39a b3bd 0ca8 b93d 79f9 953d 80b2 333e
00000310: c205 593e 3556 c4bd 139d 9c3e 4fcb 023e
00000320: 8509 103e 0b6d 063e 6f3f 3fbe 5e76 dabd
00000330: 074c d63d 0300 003d 1db7 6dbd 9db3 453c
00000340: 77dc 61be 0263 ab3d ede8 dd3d 63a5 8c3e
00000350: e79e e83d a6b0 debc 4249 10be df5e b1bb
00000360: 5e6f 4ebd f3ac 273e 6d81 433e 54fc c4bd
00000370: 91fe d1bd a19a 893d 8b66 c7bb c34e 25be
00000380: ce09 453e 8606 29bc aa09 bbbd 0104 1d3e
00000390: 4439 5c3e fbe8 833d 7f14 4d3c c797 cf3d
000003a0: 22e3 7fbd a227 00bc 7ed0 253e 06a6 36be
000003b0: 7a54 9e3d 9e95 303e fbc5 23be 80fd 733e
000003c0: 1013 39bc 06b6 c0bd be7e 4d3d 7202 b4bd
000003d0: 84fb 24be 98f8 70bd 471b be3d c8f0 073e
000003e0: 9936 453d 4bb3 9ebc 91ac c93d 0025 9a3d
000003f0: 65e1 9e3d b371 2fbd ca81 f43d 799b 13bd

fc2.weight f4 [256, 256]
-0.27546373 0.13488942 -0.11626232 0.14466521 0.029469056 0.07270729 0.107841544 0.08377548
0.12707458 0.0014964943 0.115828015 -0.10162942 0.08172984 0.18094817 0.06348211 0.09088701
0.12795183 0.06731763 0.15061234 0.1108551 0.15979229 0.15597908 0.112518914 0.12548329
-0.21629952 0.13053201 0.12408807 0.05153623 0.0866774 0.13359322 0.022164805 0.1129114
0.1797337 0.13765353 0.1340734 0.12405965 0.08184512 0.11480838 -0.07253654 0.111795574
0.048541058 0.06672291 0.18269059 0.09724288 -0.19668114 0.037382193 0.10337191 -0.0017596855
0.037305847 -0.27371776 0.103745155 0.14835317 0.12765342 -0.20190863 -0.2393296 0.050129425
0.13159642 0.10659237 -0.17414923 0.1201677 0.07451242 -0.013314516 0.029464807 -0.04126562
0.08946261 0.10004064 0.2516718 0.10717019 0.07831085 0.2328859 0.26645276 -0.4385209
-0.12050134 0.20659257 0.06566762 0.106558494 0.25391668 0.084597826 0.11694426 0.057042316
0.03248791 -0.010031406 0.13069798 0.105456494 0.07089141 -0.24668004 0.17297384 -0.12226949
0.1403925 0.078542516 0.096013345 0.1804723 -0.31728923 0.11855789 -0.47164625 -0.080609076
0.098721065 -0.09522901 -0.17270868 0.07856094 -0.050840605 0.16278856 0.06796392 0.044654205
0.15567861 0.15058017 0.08141106 -0.05124946 0.09050137 0.114932895 0.11716462 0.13143817
0.27167392 0.08003803 0.16783224 -0.11666269 0.12241801 0.01986434 -0.02241553 -0.4179783
-0.21906792 -0.080872096 0.1556221 0.12572835 -0.10804445 0.14932272 -0.032727353 0.08167206
0.12117178 0.07207219 0.12741934 -0.15307893 0.057705864 0.097824045 0.13865636 0.19012652
0.0681256 0.10289684 -0.04164442 0.11997382 0.1478634 0.102176666 0.088084005 0.22729982
0.029889174 0.091859326 -0.089151666 -0.5315919 0.12448919 0.046175014 0.10869753 0.07507214
0.114220224 0.15263996 0.03745879 0.10773903 0.047231868 -0.3877729 0.17262524 0.16587587
0.05328801 -0.52620894 -0.06041713 0.18208599 0.059916932 0.22026189 0.10381076 0.10198701
-0.18648481 0.14901058 0.13154393 0.059353903 0.15208481 -0.025878282 0.12662683 0.08415426
0.04286905 -0.025380712 0.028576087 -0.09961622 0.1471631 0.14585803 0.08409179 0.13975711
0.12617572 0.10063884 -0.13132682 0.07161162 0.16806072 0.124240525 0.020240722 0.13522093
0.16679198 0.109768614 0.081042625 0.11692965 -0.19411388 0.13482013 -0.036506783 -0.27491137
-0.31605718 0.11725608 0.0657804 0.123511024 0.15716974 0.1379748 0.058351964 0.16612753
0.09329825 0.046811204 0.20359394 -0.22365212 -0.15700279 0.09349551 0.112531886 0.1349837
0.21457449 0.035806432 -0.20336156 0.18041083 0.13270272 0.052519884 0.1701729 0.052340437
0.06816068 0.11151813 0.11317474 -0.05915316 -0.0494678 0.04155659 -0.19255649 0.10378709
0.14531626 0.078444146 0.040895533 0.22164059 0.095811106 0.12712029 0.16052583 -0.132135
0.15338822 0.20558566 0.08690249 0.111599736 0.1321499 0.13612758 0.1370405 0.047087632
0.04885763 0.12461585 0.030702733 0.12855212 0.1581889 0.18598723 0.045782227 0.11820646
00000000: 9509 8dbe 7420 0a3e f01a eebd 1e23 143e
00000010: 1769 f13c 8fe7 943d 07dc dc3d 7b92 ab3d
00000020: d71f 023e 0426 c43a 3d37 ed3d 1623 d0bd
00000030: f961 a73d 7a4a 393e e902 823d f822 ba3d
00000040: ce05 033e d3dd 893d 1f3a 1a3e 0008 e33d
00000050: 97a0 233e fbb8 1f3e 5170 e63d b17e 003e
00000060: 9f7d 5dbe 2faa 053e e321 fe3d a717 533d
00000070: ec83 b13d a9cc 083e f792 b53c 183e e73d
00000080: 1c0c 383e 0cf5 0c3e 8a4a 093e fc12 fe3d
00000090: 6a9e a73d a820 eb3d 0a8e 94bd 14f5 e43d
000000a0: fdd2 463d 05a6 883d 3e13 3b3e 4627 c73d
000000b0: c866 49be 121e 193d a7b4 d33d 3fa5 e6ba
000000c0: 04ce 183d bc24 8cbe 5778 d43d e5e9 173e
000000d0: 94b7 023e 23c1 4ebe d212 75be 8354 4d3d
000000e0: 36c1 063e 1a4d da3d 2d54 32be 7c1a f63d
000000f0: f899 983d 2125 5abc 2e60 f13c 2406 29bd
00000100: 2c38 b73d 1be2 cc3d 20db 803e 0b7c db3d
00000110: 7061 a03d a479 6e3e 7f6c 883e d085 e0be
00000120: 68c9 f6bd 018d 533e bf7c 863d 573b da3d
00000130: 5e01 823e a041 ad3d 7980 ef3d 34a5 693d
00000140: 0b12 053d c45a 24bc b1d5 053e 93f9 d73d
00000150: 842f 913d b199 7cbe 0e20 313e 6d68 fabd
00000160: 0dc3 0f3e e6da a03d a5a2 c43d bbcd 383e
00000170: bc73 a2be 7bce f23d 9e7b f1be 5f16 a5bd
00000180: 452e ca3d 6d07 c3bd 8bda 30be 8fe4 a03d
00000190: 3d3e 50bd 0bb2 263e ab30 8b3d 54e7 363d
000001a0: 376a 1f3e b031 1a3e d8ba a63d f4ea 51bd
000001b0: c858 b93d f061 eb3d 01f4 ef3d ba97 063e
000001c0: d818 8b3e fbea a33d 37dc 2b3e d9ec eebd
000001d0: 4bb6 fa3d 8aba a23c c6a0 b7bc 4001 d6be
000001e0: 5753 60be 45a0 a5bd 665b 1f3e efbe 003e
000001f0: 6946 ddbd 0ee8 183e 1e0d 06bd ae43 a73d
00000200: e928 f83d 969a 933d 377a 023e b9c0 1cbe
00000210: fc5c 6c3d f957 c83d effb 0d3e 87b0 423e
00000220: 6f85 8b3d 94bb d23d 5793 2abd d6b4 f53d
00000230: 8169 173e 0042 d13d 6365 b43d 49c1 683e
00000240: 24da f43c be20 bc3d 2695 b6bd 6816 08bf
00000250: 30f4 fe3d 0322 3d3d d09c de3d 6cbf 993d
00000260: 4bec e93d a64d 1c3e 636e 193d 48a6 dc3d
00000270: 3476 413d 2b8a c6be acc4 303e 5ddb 293e
00000280: 8744 5a3d a1b5 06bf f477 77bd c074 3a3e
00000290: 756b 753d 558c 613e bc9a d43d 91de d03d
000002a0: e0f5 3ebe 3b96 183e 74b3 063e 141d 733d
000002b0: 1fbc 1b3e b1fe d3bc 77aa 013e 1259 ac3d
000002c0: 7597 2f3d 36eb cfbc 6618 ea3c 9703 ccbd
000002d0: ecb1 163e cf5b 153e 5138 ac3d 7d1c 0f3e
000002e0: 3534 013e bc1b ce3d 8a7a 06be 1da9 923d
000002f0: 1c18 2c3e d171 fe3d dfcf a53c 5b77 0a3e
00000300: 84cb 2a3e 5ece e03d adf9 a53d d078 ef3d
00000310: cac5 46be 4a0e 0a3e 2388 15bd 2fc1 8cbe
00000320: 3fd2 a1be f523 f03d e0b7 863d 59f3 fc3d
00000330: 1bf1 203e 4449 0d3e 7802 6f3d 561d 2a3e
00000340: 2713 bf3d 1bbd 3f3d ee7a 503e 1005 65be
00000350: 57c5 20be 937a bf3d 1e77 e63d 2b39 0a3e
00000360: 6ab9 5b3e c4a9 123d 033e 50be 9ebd 383e
00000370: 39e3 073e 171f 573d ce41 2e3e ed62 563d
00000380: d497 8b3d 9e63 e43d 28c8 e73d 954a 72bd
00000390: bf9e 4abd 3e37 2a3d 872d 45be 538e d43d
000003a0: c9cd 143e 53a7 a03d 1382 273d c0f5 623e
000003b0: 9d38 c43d d22b 023e e260 243e 664e 07be
000003c0: cd11 1d3e 0c85 523e eff9 b13d 678e e43d
000003d0: 4e52 073e 0765 0b3e 5854 0c3e f6de 403d
000003e0: f01e 483d 9836 ff3d 4c84 fb3c 2ba3 033e
000003f0: 45fc 213e 7073 3e3e 2586 3b3d 3a16 f23d

fc2.bias f4 [256]
0.018537454 0.024817137 0.015635975 -0.019327018 -0.043202173 -0.005048013 0.01952322 -0.008260641
0.006184267 -0.039473694 0.014523072 0.033490337 0.07485644 0.0030359526 0.09416013 -0.012837234
0.009264481 0.075595334 -0.00681942 -0.02292435 -0.13353409 0.04142777 0.059755035 0.049942687
0.1850222 0.121111065 0.052187342 0.05931225 0.06697101 -0.008214519 0.026537422 0.021921996
0.044752028 0.038646985 -0.0580757 -0.0072865775 -0.011490571 0.03251501 0.084645346 0.09522339
0.015459479 0.15709691 -0.07498101 -0.043849017 0.018276602 0.1488331 0.04007548 -0.051989228
0.08993126 0.1262686 0.020653613 0.03963691 -0.025386117 -0.0629891 0.022339633 0.0794414
-0.05379505 0.0989493 0.11165354 0.0966107 0.11304642 0.03840182 -0.01581252 0.040924385
0.045661353 0.06108944 -0.1304907 0.057780214 0.14876474 0.040188942 0.037280712 0.04976306
-0.003949022 0.06777132 0.059837032 0.008775773 0.011300503 0.06432617 0.035227865 -0.046554394
0.12758465 0.05150424 0.01925583 0.05415633 0.030516041 0.010797093 0.11334003 -0.0788324
-0.074905545 0.0064945905 0.024283735 0.046041492 0.039482906 -0.050017167 0.014959343 0.04288691
-0.037174046 0.02024891 -0.026713146 0.023649078 0.059172004 -0.03225888 0.16510035 0.14982003
-0.06911583 0.0047804825 0.08489738 0.001000352 0.069115475 0.028023254 -0.07536143 -0.008637113
-0.024035493 0.007920551 -0.065262064 -0.028953528 -0.013569052 0.013629859 0.12165007 0.1153586
0.002115387 0.050123036 -0.042460054 -0.034554753 0.16049653 0.03861564 0.07098348 -0.07320293
-0.07269033 -0.071902394 0.005688646 0.11048594 0.010797302 0.15578377 -0.045491904 -0.0074974704
0.026081456 -0.032206766 0.05690422 0.1376767 0.07407446 0.029534904 -0.007655395 -0.040707786
-0.066127375 0.11162311 0.04654294 0.012570067 0.054624695 0.09329398 -0.08381624 -0.025136672
-0.017213527 0.042590935 0.047292642 0.018184647 0.074461974 0.08632017 -0.021350862 0.043712255
-0.016237086 -0.016041214 0.03404582 0.039452538 0.029330932 0.057945598 -0.044395566 0.033141173
-0.080823325 0.050095174 -0.013454617 0.10621357 0.08338858 0.034363836 0.075416714 -0.012623403
0.026312703 0.07909832 -0.017887449 -0.10720853 0.1309098 -0.0029819114 0.044958774 0.031615272
-0.005591146 0.04342749 -0.05971412 0.036633067 -0.040640637 -0.0076681194 -0.012105214 -0.036629193
0.13574587 0.024334269 0.051500645 0.11426348 0.071936116 0.14844409 0.01512585 -0.039531082
0.099945806 0.06582238 -0.02567705 0.06975343 0.05345871 0.06569908 0.013134245 -0.01428329
0.095030546 -0.08053354 0.032366633 -0.101724274 0.044304024 0.052606553 -0.04191695 -0.03398262
-0.08129426 -0.006007994 0.002544162 -0.11445821 0.1728548 0.08583733 -0.031167984 0.08363582
-0.13193482 -0.044422388 -0.05909914 0.03392174 0.15203333 0.01330063 -0.031088071 -0.049624387
0.010576357 0.031165546 0.08255231 0.044746157 0.0124609005 -0.007296794 -0.012465668 -0.06557859
-0.0873493 -0.100098 -0.02826607 -0.006455819 -0.12900071 0.11228195 0.27533337 0.10778831
0.079944715 0.08867574 0.023557492 0.12507051 -0.008959107 -0.05842267 -0.10699366 0.097171634
00000000: dcdb 973c 4f4d cb3c 0417 803c b253 9ebc
00000010: c3f4 30bd cd69 a5bb 29ef 9f3c a457 07bc
00000020: 64a5 ca3b 2baf 21bd 2ef2 6d3c 2a2d 093d
00000030: 554e 993d d5f6 463b 07d7 c03d 4353 52bc
00000040: 0dca 173c bad1 9a3d 7175 dfbb d9cb bbbc
00000050: 29bd 08be 2ab0 293d b2c1 743d b490 4c3d
00000060: 7676 3d3e 1409 f83d 65c2 553d 67f1 723d
00000070: 1928 893d 3196 06bc 0265 d93c c295 b33c
00000080: e74d 373d 4d4c 1e3d c9e0 6dbd 3ec4 eebb
00000090: f342 3cbc 762e 053d 8a5a ad3d 7b04 c33d
000000a0: c149 7d3c 03de 203e a58f 99bd 079b 33bd
000000b0: d0b8 953c b467 183e 3026 243d a8f2 54bd
000000c0: e12d b83d 8e4c 013e c431 a93c 505a 223d
000000d0: 8cf6 cfbc 6e00 81bd 9b01 b73c 2cb2 a23d
000000e0: 3358 5cbd eea5 ca3d 9caa e43d d5db c53d
000000f0: e284 e73d 3a4b 1d3d 4289 81bc 54a0 273d
00000100: 6607 3b3d ec38 7a3d 5b9f 05be f2aa 6c3d
00000110: c955 183e 299d 243d a9b3 183d 5ad4 4b3d
00000120: cc66 81bb b1cb 8a3d ad17 753d 43c8 0f3c
00000130: bf25 393c 70bd 833d 184b 103d d2af 3ebd
00000140: 8da5 023e 1cf6 523d 67be 9d3c 07d3 5d3d
00000150: c7fc f93c 4ae6 303c d11e e83d e272 a1bd
00000160: 1468 99bd 93d0 d43b afee c63c 0196 3c3d
00000170: d4b8 213d cdde 4cbd 0818 753c 2faa 2f3d
00000180: d043 18bd 0be1 a53c 87d5 dabc b6bb c13c
00000190: 585e 723d e321 04bd 1110 293e 6c6a 193e
000001a0: 9a8c 8dbd 98a5 9c3b adde ad3d 3e1e 833a
000001b0: 6a8c 8d3d 0691 e53c 1857 9abd ad82 0dbc
000001c0: 15e6 c4bc 33c5 013c 1ea8 85bd f32f edbc
000001d0: bb50 5ebc c64f 5f3c ac23 f93d 2141 ec3d
000001e0: 4ea2 0a3b d04d 4d3d 98ea 2dbd 4989 0dbd
000001f0: 3459 243e 6f2b 1e3d c95f 913d 6beb 95bd
00000200: abde 94bd 9041 93bd d267 ba3b 7446 e23d
00000210: 2be7 303c c885 1f3e b855 3abd 57ad f5bb
00000220: c7a8 d53c 3eeb 03bd 6614 693d 1ffb 0c3e
00000230: 5ab4 973d 2ff3 f13c 1cda fabb 35bd 26bd
00000240: ca6d 87bd a89a e43d cfa3 3e3d aff2 4d3c
00000250: 25be 5f3d ea10 bf3d d9a7 abbd 6ceb cdbc
00000260: 6203 8dbc d573 2e3d eeb5 413d f8f7 943c
00000270: 857f 983d a1c8 b03d 01e8 aebc 9f0b 333d
00000280: a303 85bc dd68 83bc a173 0b3d fc98 213d
00000290: 6c47 f03c 5d58 6d3d 20d8 35bd 0abf 073d
000002a0: b386 a5bd 9930 4d3d c170 5cbc 8086 d93d
000002b0: a2c7 aa3d 18c1 0c3d 1474 9a3d 64d2 4ebc
000002c0: bd8d d73c 4dfe a13d b388 92bc 2590 dbbd
000002d0: 380d 063e 2c6c 43bb b126 383d 047f 013d
000002e0: ef35 b7bb 06e1 313d cb96 74bd 8e0c 163d
000002f0: cc76 26bd d944 fbbb f354 46bc 7e08 16bd
00000300: f700 0b3e a958 c73c 57f2 523d f902 ea3d
00000310: 3e53 933d ba01 183e 6ad2 773c 58eb 21bd
00000320: 63b0 cc3d e2cd 863d ad58 d2bc e3da 8e3d
00000330: 85f7 5a3d 3d8d 863d 0431 573c 7604 6abc
00000340: 609f c23d c5ee a4bd e092 043d d154 d0bd
00000350: 2378 353d f879 573d 1cb1 2bbd 5c31 0bbd
00000360: 9b7d a6bd b5de c4bb f5bb 263b 1169 eabd
00000370: d900 313e 7bcb af3d 0054 ffbc 4249 ab3d
00000380: ec19 07be 40f4 35bd f111 72bd 86f1 0a3d
00000390: a0ae 1b3e e3ea 593c 69ac febc f142 4bbd
000003a0: 7548 2d3c e34e ff3c 2f11 a93d bf47 373d
000003b0: ce28 4c3c f219 efbb cd3c 4cbc 114e 86bd
000003c0: 31e4 b2bd 2e00 cdbd 3f8e e7bc 568b d3bb
000003d0: c318 04be 14f4 e53d 7ff8 8c3e 1ec0 dc3d
000003e0: 0eba a33d a09b b53d a4fb c03c 7c12 003e
000003f0: 38c9 12bc 9c4c 6fbd 7e1f dbbd ec01 c73d

fc3.weight f4 [10, 256]
-0.09842968 0.03757383 -0.08893199 0.10362419 -0.024864372 -0.045079187 -0.14739846 -0.07963445
-0.10621239 -0.01567599 -0.06097439 0.114879675 -0.089038074 0.02100495 0.03488878 -0.01634162
-0.031090518 0.03588966 0.011983472 -0.059594613 -0.06612393 0.017863916 0.19219573 -0.07140593
0.25630364 0.12979615 -0.0951613 -0.013407955 0.2615373 -0.07715116 -0.06545578 0.112787865
-0.002596481 -0.0041779173 -0.021503951 -0.11471619 0.05237168 -0.03187187 0.1805208 0.0546147
0.1852225 0.13662435 -0.131828 -0.016045593 0.013016403 0.19007866 0.039754797 -0.06735045
0.09305962 0.15514901 0.2551007 -0.032495957 -0.055083875 -0.14218092 -0.038498227 -0.074391685
-0.024103083 0.1409303 0.13300198 0.19537115 0.034407422 0.025596758 0.008083776 -0.12852003
0.0128187025 -0.08090023 -0.088484585 0.026613196 0.38809803 0.14374796 0.040626016 0.22064508
-0.031628743 0.06635853 0.041675244 -0.05981496 0.08022817 0.028691947 -0.077577114 -0.09025981
0.026093345 -0.06446873 -0.08628786 0.014286094 -0.024167102 -0.021104414 -0.20273595 -0.056202464
0.007974159 0.17361787 0.04679513 0.13087171 0.0263278 -0.025408246 -0.10516706 -0.037047707
0.009590376 -0.119458705 -0.038257048 0.10002007 0.08486187 -0.049916912 0.09154859 0.12206205
-0.028124575 -0.014039063 0.25394183 0.13848199 0.18992664 0.15979943 -0.10888472 0.026803823
-0.06565908 -0.059674986 0.0122701 -0.060684595 -0.013397582 -0.0044033276 0.05077929 0.011533051
-0.067161724 -0.22452626 0.026381688 -0.08942885 0.28106815 0.08097054 0.017821385 -0.07078745
-0.06721304 -0.10438803 -0.020454805 0.19023588 -0.10272311 0.06803532 -0.029308885 -0.022850424
-0.121743314 -0.07197846 0.07810063 -0.0093183825 0.11698777 0.11674048 -0.038885303 -0.057252683
-0.03606412 -0.015225549 -0.08561316 0.056351665 0.03880611 -0.09725691 -0.11566205 0.10002368
-0.06391205 -0.088852994 0.06051702 -0.079294056 -0.05001981 0.051693685 -0.057685945 -0.0019454516
-0.096758105 -0.061780274 -0.006297341 0.010907082 -0.056291398 0.03515783 -0.111430034 -0.08890974
-0.00836714 -0.016735304 -0.08215188 0.07125772 -0.030452942 0.013887435 0.27606258 -0.0016087627
-0.0059825666 0.0004962778 -0.087182134 -0.033373635 0.233913 -0.10763463 -0.09458815 0.015174531
-0.055221822 -0.08140687 0.049761724 -0.08341763 -0.11035329 -0.049706254 0.1723466 -0.011254609
0.15048742 -0.0012088348 -0.039306313 0.26512492 0.031042226 0.0066688284 0.0036962507 -0.05341705
0.11949462 0.07082977 -0.041384198 -0.055208474 0.1712565 0.101387605 -0.17470285 -0.10455656
-0.0032170597 -0.04279143 0.03604404 -0.070240445 0.061124865 0.0020025761 -0.080137275 -0.071074374
0.040710498 -0.004266435 0.016196156 -0.08242401 0.31549186 0.45229873 0.017886413 0.019282265
-0.006224252 -0.03013147 0.03809773 -0.015808366 0.34922117 0.21692348 -0.06361096 -0.14316463
0.0032792944 0.09888063 -0.050978165 0.055415474 -0.032840513 -0.098630846 0.049162515 -0.09014547
-0.004929914 -0.13403678 0.0215417 -0.060455248 -0.07727826 0.0447929 -0.3767795 0.09942685
0.019939503 0.12237359 0.02986118 0.11825605 -0.016937634 0.010285758 0.028524311 0.027434604
00000000: 8095 c9bd 04e7 193d fa21 b6bd eb38 d43d
00000010: 5eb0 cbbc f4a4 38bd 9fef 16be 6317 a3bd
00000020: e285 d9bd ef6a 80bc 48c0 79bd 0946 eb3d
00000030: 9859 b6bd 9312 ac3c 8ae7 0e3d dcde 85bc
00000040: 8bb1 febc 0901 133d 5356 443c 7b19 74bd
00000050: fc6b 87bd 5957 923c f5ce 443e 463d 92bd
00000060: 3b3a 833e 48e9 043e ede3 c2bd 0aad 5bbc
00000070: 38e8 853e 6d01 9ebd ae0d 86bd 53fd e63d
00000080: b929 2abb e9e6 88bb 0e29 b0bc 52f0 eabd
00000090: b083 563d 148c 02bd 72da 383e aab3 5f3d
000000a0: f8aa 3d3e 41e7 0b3e ebfd 06be 0c72 83bc
000000b0: c042 553c fba3 423e edd5 223d 08ef 89bd
000000c0: 0b96 be3d 62df 1e3e 8f9c 823e 7b1a 05bd
000000d0: a19f 61bd e097 11be 51b0 1dbd ab5a 98bd
000000e0: d473 c5bc 0850 103e ac31 083e 600f 483e
000000f0: ccee 0c3d 4bb0 d13c d071 043c c19a 03be
00000100: 8905 523c 05af a5bd 6837 b5bd eb03 da3c
00000110: c9b4 c63e aa32 133e 7767 263d c9f0 613e
00000120: 248d 01bd fbe6 873d a9b3 2a3d 8800 75bd
00000130: ab4e a43d 600b eb3c c0e0 9ebd 23da b8bd
00000140: b6c1 d53c 2e08 84bd b1b7 b0bd 3910 6a3c
00000150: 16fa c5bc 2ae3 acbc 039a 4fbe 8e34 66bd
00000160: 0ca6 023c e2c8 313e 40ac 3f3d 3c03 063e
00000170: 66ad d73c f424 d0bc d461 d7bd 56bf 17bd
00000180: f420 1d3c c4a6 f4bd 6cb3 1cbd 53d7 cc3d
00000190: 0fcc ad3d ad75 4cbd d47d bb3d abfb f93d
000001a0: 8265 e6bc 1904 66bc aa04 823e 39ce 0d3e
000001b0: 217c 423e 76a2 233e f4fe debd b193 db3c
000001c0: 4578 86bd c26d 74bd 8808 493c 6990 78bd
000001d0: 8881 5bbc ca49 90bb f2fd 4f3d 1ff5 3c3c
000001e0: 168c 89bd 36ea 65be 691e d83c 7926 b7bd
000001f0: 2ae8 8f3e e2d3 a53d 27fe 913c 03f9 90bd
00000200: fea6 89bd 64c9 d5bd d690 a7bc 32cd 423e
00000210: 7e60 d2bd 1a56 8b3d 3019 f0bc d030 bbbc
00000220: 8f54 f9bd 7169 93bd 39f3 9f3d 21ac 18bc
00000230: 4997 ef3d a215 ef3d 3246 1fbd ca81 6abd
00000240: f8b7 13bd 9574 79bc f455 afbd 01d1 663d
00000250: 28f3 1e3d a12e c7bd 3ae0 ecbd 37d9 cc3d
00000260: 52e4 82bd 8ff8 b5bd b2e0 773d ec64 a2bd
00000270: 93e1 4cbd c2bc 533d 1948 6cbd 86fe feba
00000280: 1d29 c6bd 500d 7dbd ed59 cebb 9eb3 323c
00000290: cf91 66bd a801 103d 6e35 e4bd 4f16 b6bd
000002a0: 5416 09bc 7a18 89bc 3f3f a8bd 91ef 913d
000002b0: 7378 f9bc 2088 633c 1358 8d3e 1edd d2ba
000002c0: 6809 c4bb a418 023a 8c8c b2bd cbb2 08bd
000002d0: e486 6f3e 8b6f dcbd 6fb7 c1bd 999e 783c
000002e0: 4730 62bd a5b8 a6bd f3d2 4b3d ddd6 aabd
000002f0: e800 e2bd c998 4bbd a17b 303e 4065 38bc
00000300: 6019 1a3e c471 9eba a8ff 20bd 74be 873e
00000310: 444c fe3c 3086 da3b cc3c 723b d6cb 5abd
00000320: 98b9 f43d 330f 913d 7a82 29bd 4822 62bd
00000330: dd5d 2f3e 4ea4 cf3d 4ee5 32be c021 d6bd
00000340: 4ed5 52bb 1146 2fbd eaa2 133d 39da 8fbd
00000350: 115e 7a3d a73d 033b 031f a4bd 718f 91bd
00000360: 0dc0 263d 73cd 8bbb cdad 843c ebcd a8bd
00000370: 2688 a13e b393 e73e 8786 923c d7f5 9d3c
00000380: cff4 cbbb 46d6 f6bc 5e0c 1c3d 8c80 81bc
00000390: 1ecd b23e 3021 5e3e 7746 82bd c099 12be
000003a0: 6ee9 563b ee81 ca3d 7bce 50bd 56fb 623d
000003b0: c683 06bd f8fe c9bd a25e 493d 309e b8bd
000003c0: 1e8b a1bb f040 09be 3878 b03c ec9f 77bd
000003d0: 1044 9ebd c378 373d 3ee9 c0be 4ea0 cb3d
000003e0: 2b58 a33c 019f fa3d 6f9f f43c 3a30 f23d
000003f0: cbc0 8abc 9985 283c d1ab e93c 89be e03c

fc3.bias f4 [10]
-0.04265099 -0.029958082 -0.078369774 0.006621687 0.0033633802 -0.019403996 0.0017811564 -0.04404858
-0.08459493 -0.0052366075
00000000: ceb2 2ebd a76a f5bc 5580 a0bd bdfa d83b
00000010: 286c 5c3b 21f5 9ebc b175 e93a 496c 34bd
00000020: 1b40 adbd d997 abbb
