dqn_checkpoint_a.pth (torch, 311583 bytes, 6 tensors)

fc1.weight f4 [256, 34]
0.07855891 0.062128767 0.124659404 -0.1323805 0.13400821 0.09403972 0.0756069 0.013423741
0.084735766 0.13518833 0.14226238 0.04479757 -0.029537156 -0.15858959 -0.11697357 0.13413654
-0.13358012 0.03939338 -0.04055372 0.077834755 -0.032271594 -0.08330132 0.084811255 0.11668326
0.08900921 -0.14060009 0.14925621 -0.055356845 0.054411322 -0.058208592 0.05935934 -0.03485334
0.024091244 -0.1020856 -0.11484929 -0.0757381 -0.12736556 -0.07911557 0.07167451 -0.1682643
0.0942197 0.063197225 -0.1259186 -0.0077741146 -0.0097002685 -0.020779625 0.06958933 -0.16584353
-0.16201419 0.1689619 0.15747695 0.11079492 0.109572664 -0.039821982 -0.0099835545 -0.09847343
-0.07255167 0.14957894 -0.08415182 -0.036122248 0.07202196 0.13776 0.07619104 0.1227905
-0.110654235 0.12548731 -0.0054662675 -0.054779395 -0.112947136 -0.0014391243 0.05948375 -0.14661676
0.13760681 0.13588719 -0.14796841 0.051228464 0.15442859 -0.047480546 -0.060259596 -0.08366633
0.013418749 0.035862565 0.12710942 0.0069379658 0.03674224 0.14036728 0.107508644 -0.16761036
0.10288267 -0.15475075 -0.12587863 0.14194568 -0.03724128 0.16012801 -0.15618557 -0.013062
0.10795803 -0.036289006 0.124639556 -0.14806676 0.04655616 -0.0028173923 0.13619377 -0.16564587
-0.04634793 0.14970227 -0.02402018 0.080489054 -0.14033331 -0.12772875 -0.009529233 -0.005781293
-0.09536928 -0.16652592 -0.065524556 -0.029404894 0.10787286 0.051444516 -0.060840458 0.000830397
0.13653465 -0.08105524 0.091686025 -0.16042894 0.14258437 0.1287375 -0.13760547 -0.048107304
0.1571709 -0.041224405 -0.10860685 0.0054549277 0.1423708 0.06079714 -0.07436568 -0.020192534
0.016241327 0.0060415715 0.019627884 0.14796053 0.13111524 0.13691597 -0.14910279 0.00058728456
-0.104677655 -0.14379337 -0.029715031 -0.13600864 -0.023505047 0.16547148 0.036097392 0.064301774
-0.17140146 0.0060349107 -0.12442919 0.10063271 -0.07130269 -0.0956731 -0.09850201 0.044293493
-0.09335679 0.044615492 0.046080723 0.073649645 0.06193778 0.17017682 -0.14388523 0.06020215
-0.15596764 0.12314744 0.107291535 0.16462784 -0.14474584 0.07948883 -0.14517805 -0.050049625
-0.12936005 -0.032831907 -0.13018686 -0.16165961 -0.036052406 0.0070697814 0.14935045 0.10191102
0.04771164 0.015763685 -0.04521805 -0.16374592 -0.15187427 -0.0013059527 -0.0781928 -0.026328474
0.07947351 -0.037941173 -0.15516388 -0.12897265 -0.14386374 0.08490445 -0.041860715 0.12031005
-0.033364877 -0.03331478 0.16205306 -0.105738305 -0.03835523 0.025440201 0.030091807 -0.045870274
0.103267655 0.0050128996 -0.095330864 0.11063935 -0.005276546 -0.15320851 0.13849445 -0.12399581
0.0911497 -0.07091725 0.053940177 -0.051579736 0.028946206 0.13418682 0.084387556 0.024264663
0.061506733 -0.054721013 -0.05189447 0.16524814 -0.16505907 -0.05611878 0.038628787 -0.15668213
-0.094090454 -0.06609333 0.07461879 0.01783581 -0.13973382 -0.052026995 -0.11679006 -0.1684457
0.042398646 0.10522984 0.052444205 -0.07078414 0.12586416 0.13631217 0.09239586 0.006709218
-0.10865488 0.047020942 0.14810167 0.002106756 0.061116755 -0.0145906955 -0.14659177 -0.09716299
00000000: 7ee3 a03d bc7a 7e3d 6e4d ff3d c18e 07be
00000010: 7339 093e e697 c03d cad7 9a3d 40ef 5b3c
00000020: f289 ad3d cf6e 0a3e 3bad 113e a87d 373d
00000030: e8f7 f1bc 4f65 22be d78f efbd 175b 093e
00000040: 3ac9 08be f45a 213d a81b 26bd d467 9f3d
00000050: 382f 04bd e299 aabd 86b1 ad3d a2f7 ee3d
00000060: 764a b63d 78f9 0fbe 9fd6 183e dcbd 62bd
00000070: 68de 5e3d 226c 6ebd c822 733d 60c2 0ebd
00000080: 005b c53c 4112 d1bd 1b36 ebbd 941c 9bbd
00000090: 1e6c 02be 5807 a2bd 16ca 923d 7a4d 2cbe
000000a0: 42f6 c03d 8c6d 813d cef0 00be 00be febb
000000b0: e0ed 1ebc 083a aabc da84 8e3d e3d2 29be
000000c0: 0ce7 25be 5904 2d3e a341 213e 72e8 e23d
000000d0: a267 e03d 601c 23bd 1092 23bc 70ac c9bd
000000e0: f895 94bd 392b 193e ca57 acbd ecf4 13bd
000000f0: 4080 933d f510 0d3e 0c0a 9c3d 9679 fb3d
00000100: b09e e2bd bf7f 003e 601e b3bb 5c60 60bd
00000110: d450 e7bd 00a1 bcba 3ca5 733d b422 16be
00000120: cde8 0c3e 0326 0b3e 0885 17be f0d4 513d
00000130: 8722 1e3e f67a 42bd c4d2 76bd 4159 abbd
00000140: 50da 5b3c a0e4 123d f928 023e e057 e33b
00000150: 087f 163d 71bc 0f3e 7e2d dc3d 0da2 2bbe
00000160: 26b4 d23d fb76 1ebe 54e6 00be 355a 113e
00000170: 508a 18bd 99f8 233e 1cef 1fbe 0002 56bc
00000180: 1a19 dd3d c8a3 14bd 0643 ff3d d09e 17be
00000190: acb1 3e3d 00a4 38bb 6176 0b3e 129f 29be
000001a0: 54d7 3dbd 8d4b 193e f8c5 c4bc 72d7 a43d
000001b0: 89b3 0fbe 53cb 02be 8020 1cbc 0071 bdbb
000001c0: f850 c3bd c585 2abe bd31 86bd 88e2 f0bc
000001d0: 72ec dc3d 7cb7 523d d833 79bd 00af 593a
000001e0: bdcf 0b3e 4a00 a6bd e2c5 bb3d 7c47 24be
000001f0: a301 123e c3d3 033e 73e8 0cbe 2a0c 45bd
00000200: 69f1 203e ecda 28bd 456d debd 40bf b23b
00000210: a7c9 113e 6c06 793d 094d 98bd d06a a5bc
00000220: 880c 853c 60f8 c53b a8ca a03c f782 173e
00000230: 1343 063e b333 0c3e 67ae 18be 00f4 193a
00000240: 3d61 d6bd 923e 13be f06c f3bc d945 0bbe
00000250: a88d c0bc 5b71 293e dcda 133d a6b0 833d
00000260: dd83 2fbe 80c0 c53b bbd4 febd 8618 ce3d
00000270: 2507 92bd 42f0 c3bd 6cbb c9bd 186d 353d
00000280: d831 bfbd bcbe 363d 24bf 3c3d a0d5 963d
00000290: 78b2 7d3d d542 2e3e a656 13be 8896 763d
000002a0: fbb5 1fbe ba34 fc3d aabb db3d 3394 283e
000002b0: 4138 14be 0acb a23d 8ea9 14be d600 4dbd
000002c0: f676 04be c07a 06bd b44f 05be 198a 25be
000002d0: b0ab 13bd a0a9 e73b 53ef 183e bab6 d03d
000002e0: 486d 433d d822 813c 9036 39bd 03ad 27be
000002f0: ee84 1bbe 802c abba 8c23 a0bd d0ae d7bc
00000300: 02c3 a23d 3468 1bbd 48e3 1ebe 6811 04be
00000310: 0451 13be 62e2 ad3d 2476 2bbd 1e65 f63d
00000320: 9ca9 08bd 1475 08bd 3df1 253e 538d d8bd
00000330: 601a 1dbd f867 d03c 1883 f63c 78e2 3bbd
00000340: fe7d d33d 4043 a43b d43c c3bd e296 e23d
00000350: e0e6 acbb b1e2 1cbe 7dd1 0d3e 84f1 fdbd
00000360: b2ac ba3d 103d 91bd 60f0 5c3d 4645 53bd
00000370: 9820 ed3c 4568 093e 62d3 ac3d b0c6 c63c
00000380: 7cee 7b3d 2423 60bd 4c8f 54bd cf36 293e
00000390: 3f05 29be cedc 65bd 3839 1e3d 4871 20be
000003a0: 7fb2 c0bd f15b 87bd bcd1 983d 681c 923c
000003b0: 6216 0fbe 421a 55bd a12f efbd 087d 2cbe
000003c0: 34aa 2d3d be82 d73d bccf 563d 46f7 90bd
000003d0: 89e2 003e 6b95 0b3e 0a3a bd3d 00d9 db3b
000003e0: 7386 debd 0899 403d f7a7 173e 8011 0a3b
000003f0: 9055 7a3d d00d 6fbc 271c 16be 64fd c6bd

fc1.bias f4 [256]
-0.0038916618 0.121520564 -0.12834951 0.16628121 0.11499007 0.13202949 0.046106696 0.009565994
0.11466412 0.037574187 -0.1186492 0.007202089 -0.041011557 0.1291119 0.0067739934 0.13689648
0.16790478 -0.08611741 0.11458431 0.0069844574 0.026415303 -0.05565705 0.10476707 -0.10610223
0.008813366 -0.11548695 -0.023359433 0.16286759 -0.1314385 0.14046635 -0.008078039 -0.08746276
-0.09162754 0.03199774 0.00078356266 -0.057090677 0.11512162 -0.013418302 0.13757576 0.02233079
0.026285693 0.15562104 -0.029934838 -0.0945363 0.1147732 -0.08180742 0.16266407 -0.097218335
0.16857798 -0.0033157617 0.13427292 0.04194519 -0.0099080205 -0.0693997 0.04592444 -0.060050003
0.009277388 0.14442675 -0.06090723 0.06488238 0.06303263 -0.054279804 0.10853474 0.16719066
-0.023980916 -0.11216848 0.044792444 -0.1443629 -0.01882355 0.08436833 -0.09680463 0.12331049
-0.042614773 0.0828421 0.14846553 -0.09647619 0.10626294 -0.029774696 0.020392597 0.040240288
0.013201401 -0.17063193 -0.15261771 -0.10140323 0.09383716 0.11003421 0.12413348 -0.13176897
-0.021045864 -0.041271567 0.16800995 -0.06237919 0.14372684 -0.14924519 -0.15992035 0.046989784
-0.03696741 0.03379841 0.08570622 -0.05268714 -0.017511547 -0.05947519 -0.12521031 0.12211694
0.17076679 0.10002057 -0.15081619 -0.021641001 -0.07448994 0.14557539 -0.15507212 0.07198094
0.12116645 -0.13382545 0.14285357 0.06401536 -0.07042565 0.13864835 0.110211715 -0.03775987
-0.11279841 -0.06928523 0.08240114 0.0753808 -0.1494286 0.10470052 0.11372928 -0.030545086
0.07326126 0.07277119 -0.08477363 0.17018513 -0.09172268 -0.11737961 0.06807172 0.054188147
-0.06797112 0.13820748 -0.12069178 0.16850235 0.10698025 -0.0760098 -0.13528247 0.14885516
0.14767344 0.036665678 0.1538691 -0.041289598 0.02535057 0.11487253 -0.13112596 -0.16568868
-0.05204826 -0.08529124 -0.14029633 0.15256192 0.037229136 -0.1372985 -0.01597634 0.12647031
-0.018556938 0.14509173 0.075502366 0.035310104 0.17142291 0.10725339 0.038643897 0.08706249
0.12087245 0.14663212 -0.044531226 -0.022662342 0.15749665 -0.0513767 0.11369856 -0.05011131
-0.011757329 0.01869589 -0.1462188 -0.089334816 -0.039082453 -0.15382649 0.06398758 -0.07196436
-0.14303255 0.012701705 -0.056819692 0.12805487 0.0026313514 0.16066866 -0.008478835 -0.15712668
-0.040010676 -0.032004446 0.16622157 0.13589863 0.039634928 -0.10978538 0.09130238 -0.14881556
-0.11777911 0.13884865 0.09838624 -0.044953927 0.15238865 0.08721943 0.12148006 0.06688191
-0.06847067 0.11969988 -0.069591425 -0.10475559 0.16314612 -0.107803024 -0.14176366 0.077246234
-0.06612836 0.058427185 0.039949656 0.02181384 -0.045371473 0.15788044 -0.0034754127 -0.041681617
-0.15692285 -0.04102026 -0.02764374 -0.11911218 -0.079299934 0.04088451 -0.06265942 -0.104271166
-0.14099465 -0.09007649 -0.12975998 -0.079934746 -0.10532523 0.15745465 -0.08892105 -0.05060158
0.1300795 0.087099716 0.13337149 -0.12222103 0.16256075 -0.00482285 0.12178792 -0.104108125
-0.122328326 0.10315059 0.10391967 0.10639395 -0.057118952 -0.13663504 0.082940176 0.08870755
00000000: 400b 7fbb c6df f83d 0e6e 03be 9f45 2a3e
00000010: ea7f eb3d bd32 073e 60da 3c3d b0ba 1c3c
00000020: 06d5 ea3d 64e7 193d 5afe f2bd 80ff eb3b
00000030: bcfb 27bd e935 043e 60f8 dd3b 972e 0c3e
00000040: 3bef 2b3e 535e b0bd 2eab ea3d e0dd e43b
00000050: e864 d83c a6f8 63bd 1e90 d63d 204c d9bd
00000060: f065 103c 6c84 ecbd 485c bfbc c3c6 263e
00000070: d097 06be 69d6 0f3e c059 04bc ad1f b3bd
00000080: 38a7 bbbd 1010 033d 0068 4d3a ead7 69bd
00000090: e2c4 eb3d 70d8 5bbc a9e0 0c3e 10ef b63c
000000a0: 1855 d73c 1f5b 1f3e e839 f5bc 3f9c c1bd
000000b0: 360e eb3d a68a a7bd 6991 263e 681a c7bd
000000c0: b59f 2c3e 404d 59bb d77e 093e b8ce 2b3d
000000d0: 4055 22bc 6e21 8ebd 441b 3c3d fef6 75bd
000000e0: 3000 183c 9be4 133e dc79 79bd 0ee1 843d
000000f0: 4017 813d 8054 5ebd 7647 de3d 0734 2b3e
00000100: a073 c4bc 97b8 e5bd 4878 373d ded3 13be
00000110: d833 9abc 4ec9 ac3d 8141 c6bd 368a fc3d
00000120: d48c 2ebd 1ea9 a93d 5907 183e 4f95 c5bd
00000130: 62a0 d93d 10ea f3bc 600e a73c 00d3 243d
00000140: b04a 583c 23ba 2ebe d147 1cbe 7fac cfbd
00000150: b22d c03d 9e59 e13d b239 fe3d 72ee 06be
00000160: 6068 acbc 600c 29bd cd0a 2c3e 5281 7fbd
00000170: 212d 133e bbd3 18be 29c2 23be 5c78 403d
00000180: 246b 17bd 3470 0a3d be86 af3d 78ce 57bd
00000190: 6074 8fbc 429c 73bd 2237 00be 7218 fa3d
000001a0: 7ddd 2e3e 96d7 cc3d 8f6f 1abe 7848 b1bc
000001b0: 2f8e 98bd b711 153e 3acb 1ebe be6a 933d
000001c0: 1e26 f83d 8a09 09be 3548 123e 7c1a 833d
000001d0: 533b 90bd d5f9 0d3e aeb6 e13d 18aa 1abd
000001e0: da02 e7bd 6ae5 8dbd eec1 a83d 4061 9a3d
000001f0: d003 19be 3a6d d63d e6ea e83d b039 fabc
00000200: 000a 963d 1009 953d cc9d adbd 0345 2e3e
00000210: 1ad9 bbbd b964 f0bd 3069 8b3d 64f4 5d3d
00000220: 7134 8bbd 4386 0d3e 402d f7bd e18b 2c3e
00000230: 7618 db3d 07ab 9bbd 7d87 0abe 7d6d 183e
00000240: b537 173e c02e 163d dd8f 1d3e 481f 29bd
00000250: 00ac cf3c 4a42 eb3d e245 06be 4baa 29be
00000260: 8e30 55bd 2cad aebd d7a9 0fbe 3139 1c3e
00000270: 947d 183d fa97 0cbe d0e0 82bc 6f81 013e
00000280: b804 98bc ed92 143e fca0 9a3d 54a1 103d
00000290: 7d89 2f3e aaa7 db3d 1049 1e3d d24d b23d
000002a0: fa8b f73d bb26 163e 6066 36bd 60a6 b9bc
000002b0: cd46 213e 6070 52bd cada e83d 8441 4dbd
000002c0: d0a1 40bc 2028 993c 62ba 15be 2cf5 b6bd
000002d0: ec14 20bd b184 1dbe ec0b 833d 0d62 93bd
000002e0: 2077 12be d01a 503c c4bb 68bd d120 033e
000002f0: c072 2c3b 5386 243e d0ea 0abc d1e5 20be
00000300: 3ce2 23bd 1817 03bd fd35 2a3e 0329 0b3e
00000310: 3c58 223d 28d7 e0bd befc ba3d 1b63 18be
00000320: 2d36 f1bd 572e 0e3e ba7e c93d 9c21 38bd
00000330: c50b 1c3e 1aa0 b23d 8aca f83d 62f9 883d
00000340: 5a3a 8cbd 3625 f53d f385 8ebd 198a d6bd
00000350: c70f 273e d5c7 dcbd 7e2a 11be 4633 9e3d
00000360: 4e6e 87bd 5851 6f3d 40a2 233d f0b2 b23c
00000370: 70d7 39bd 69ab 213e c0c3 63bb 58ba 2abd
00000380: 62b0 20be dc04 28bd 2075 e2bc 16f1 f3bd
00000390: 0168 a2bd 8476 273d 9553 80bd 1f8c d5bd
000003a0: e760 10be 067a b8bd cddf 04be d4b4 a3bd
000003b0: c1b4 d7bd cb3b 213e 3d1c b6bd 9a43 4fbd
000003c0: 8f33 053e 5661 b23d 8992 083e 054f fabd
000003d0: 5376 263e 0009 9ebb f26b f93d a436 d5bd
000003e0: 4687 fabd 9e40 d33d d6d3 d43d 12e5 d93d
000003f0: 90f5 69bd 0eea 0bbe 8adc a93d 4eac b53d

fc2.weight f4 [256, 256]
-0.011774085 0.056484044 -0.036405154 0.021697424 0.008783743 -0.058120236 0.01959914 -0.053542376
-0.0066237897 0.0476721 -0.027798302 0.039524607 -0.056363523 0.008369766 0.029345095 -0.061623074
-0.03711123 -0.026924752 0.054256618 0.017525524 0.06163781 0.016974889 0.008523047 0.036551878
0.03504835 0.022158228 0.022442438 -0.02461771 0.026763 0.030057445 0.061120145 0.023537792
0.007627271 -0.05212661 0.038722314 0.05833023 0.04004562 -0.01361727 -0.044763304 -0.05036103
-0.0032415688 -0.049723268 0.019307673 0.041151337 -0.0011070594 0.049618125 -0.062142193 0.0066135153
-0.019466944 -0.055436395 0.040332474 -0.06039934 0.00065981597 -0.03425002 -0.045492925 0.04127106
-0.017643034 -0.04926654 -0.0053453 0.031210877 -0.02384349 0.004165344 -0.004479639 -0.004281938
0.033091478 0.016021088 -0.011263646 -0.017576054 0.058335327 0.022776552 0.012034625 -0.010490216
0.06053523 -0.04891953 -0.031901293 0.06039673 -0.030371703 -0.032541268 0.0023566931 -0.027130216
0.043762617 0.056435637 0.02015695 -0.0092228055 0.018931739 0.014069587 -0.061702542 0.03015498
-0.017476156 -0.025872454 0.0026158914 0.058773354 -0.05674982 -0.0358804 -0.056897834 0.037393473
0.029090814 0.030101366 -0.020907648 -0.027558379 -0.013235569 0.02574464 -0.029745378 0.025244303
-0.021392971 -0.039980277 -0.04086431 -0.057927802 0.0020724908 -0.04488317 -0.0055409223 -0.028409474
-0.017329417 -0.009601377 -0.045828342 0.055924103 0.055462383 0.04226569 -0.0019701421 -0.003376387
0.015161328 0.06162738 -0.059944563 0.050649263 -0.020226657 0.019932203 -0.003299363 -0.0005584806
-0.028044976 -0.043311708 0.02857595 -0.013237506 -0.0409171 0.046808906 0.018600024 -0.049315393
0.043541282 0.047772966 0.05812349 -0.042839237 -0.011236437 0.035092354 -0.056799874 0.020257808
0.023327425 -0.052186854 -0.06175036 0.046043724 0.03147298 0.052209094 0.0024783835 -0.054302223
-0.02505657 -0.0055819005 -0.017625168 0.0027475804 0.009186931 -0.0077217445 0.016019337 -0.053082407
-0.020433255 0.00071076304 0.02978611 0.039300166 0.038390324 0.04006154 0.00088083744 0.011391208
0.038455598 -0.060346335 -0.018624686 -0.038888194 -0.0510083 0.028260946 0.060348205 0.0019644946
-0.02418366 0.04648087 0.0045257583 -0.036676668 0.009645827 -0.012400188 0.036803246 -0.018129073
0.008725919 0.062067337 0.0010412261 0.009592406 0.03019876 -0.03820665 -0.033752233 -0.014459215
0.04929524 0.05545117 0.0064158887 -0.04690723 -0.021034107 0.011281878 -0.0041672736 0.059668876
0.0298405 -0.05283843 0.06125042 -0.041371547 0.0031754375 0.013541907 0.009891622 -0.053976417
-0.02119366 0.019370727 -0.00094809383 -0.019053094 0.057122476 0.054362617 0.020450264 0.059365727
0.06043119 0.0118587315 -0.000719063 0.022320211 -0.015606619 0.052366056 -0.034565195 -0.05650185
0.041793518 0.056717835 -0.053329982 -0.018553168 0.01019752 0.0055045933 0.050555497 -0.02417665
0.008076258 0.005409442 -0.060220435 -0.031507805 0.05966503 0.017873272 0.042205386 -0.062439322
-0.0174039 -0.04566443 -0.04929831 -0.021562852 0.037294395 0.055840127 0.06217111 0.0440768
0.05951103 -0.037689097 0.027383544 0.026085928 0.05755607 -0.018810257 -0.014380768 -0.006525807
00000000: 18e8 40bc d05b 673d 921d 15bd ccbe b13c
00000010: b0e9 0f3c 7c0f 6ebd 608e a03c 404f 5bbd
00000020: 600c d9bb d243 433d 44b9 e3bc 8ee4 213d
00000030: 70dd 66bd 5821 093c 2065 f03c 7a68 7cbd
00000040: f201 18bd 4c91 dcbc 303c 5e3d b091 8f3c
00000050: ee77 7c3d ec0e 8b3c 40a4 0b3c 6cb7 153d
00000060: dc8e 0f3d 2c85 b53c 34d9 b73c 14ab c9bc
00000070: 143e db3c 083b f63c 1e59 7a3d 54d2 c03c
00000080: 30ee f93b b682 55bd 4a9b 1e3d aeeb 6e3d
00000090: e006 243d f81a 5fbc ba59 37bd 5e47 4ebd
000000a0: 8070 54bb a0aa 4bbd 202b 9e3c 4e8e 283d
000000b0: c01a 91ba 603c 4b3d d088 7ebd 30b6 d83b
000000c0: 2479 9fbc 4611 63bd aa33 253d 4c65 77bd
000000d0: 80f7 2c3a c049 0cbd ca56 3abd d80b 293d
000000e0: 2088 90bc b6cb 49bd a027 afbb f4ad ff3c
000000f0: 6c53 c3bc 707d 883b f0c9 92bb 804f 8cbb
00000100: ee8a 073d a83e 833c 288b 38bc a8fb 8fbc
00000110: 06f1 6e3d e495 ba3c e02c 453c 28df 2bbc
00000120: caf3 773d d85f 48bd eeaa 02bd 9062 773d
00000130: 14ce f8bc fe49 05bd c072 1a3b 3040 debc
00000140: 6e40 333d 0e29 673d 3020 a53c 401b 17bc
00000150: bc16 9b3c 2084 663c cebb 7cbd 9407 f73c
00000160: 282a 8fbc 78f2 d3bc 606f 2b3b 54bc 703d
00000170: 8072 68bd 54f7 12bd b40d 69bd e629 193d
00000180: dc4f ee3c 2497 f63c 8446 abbc 1cc2 e1bc
00000190: 00da 58bc 6ce6 d23c 94ac f3bc 24cd ce3c
000001a0: 5040 afbc 5cc2 23bd 5661 27bd b445 6dbd
000001b0: a0d2 073b 6ad7 37bd a090 b5bb fcba e8bc
000001c0: 6cf6 8dbc 184f 1dbc 80b6 3bbd ac10 653d
000001d0: 862c 633d ca1e 2d3d 801d 01bb 6046 5dbb
000001e0: 3867 783c fe6c 7c3d 6e88 75bd 9a75 4f3d
000001f0: 60b2 a5bc dc48 a33c 203a 58bb 0067 12ba
00000200: 94be e5bc 9e67 31bd 1c18 ea3c 20e2 58bc
00000210: b098 27bd b2ba 3f3d 145f 983c f0fe 49bd
00000220: 5858 323d 96ad 433d e612 6e3d 3278 2fbd
00000230: 0819 38bc 00bd 0f3d fca6 68bd b4f3 a53c
00000240: 2819 bf3c e2c1 55bd f2ed 7cbd 5898 3c3d
00000250: d0e9 003d 34d9 553d 606c 223b 026c 5ebd
00000260: 7043 cdbc 60e8 b6bb a862 90bc c010 343b
00000270: c884 163c b006 fdbb fc3a 833c f06c 59bd
00000280: a463 a7bc 8052 3a3a 0002 f43c 36f9 203d
00000290: 2c3f 1d3d 9217 243d 00e8 663a 30a2 3a3c
000002a0: 9e83 1d3d b82d 77bd cc92 98bc 3a49 1fbd
000002b0: 14ee 50bd 8083 e73c ae2f 773d c0be 003b
000002c0: d01c c6bc ba62 3e3d d04c 943b 463a 16bd
000002d0: 8809 1e3c 282a 4bbc 00bf 163d 6c83 94bc
000002e0: 28f7 0e3c 523a 7e3d c079 883a 7829 1d3c
000002f0: 6463 f73c 947e 1cbd c83f 0abd 58e6 6cbc
00000300: cee9 493d c420 633d 603c d23b cc21 40bd
00000310: b84f acbc a0d7 383c a08d 88bb 5a67 743d
00000320: 1074 f43c 1c6d 58bd b8e1 7a3d 3675 29bd
00000330: 001b 503b e0de 5d3c 7810 223c 6016 5dbd
00000340: 549e adbc 5caf 9e3c 8089 78ba 3c15 9cbc
00000350: 42f9 693d 56ab 5e3d 5087 a73c 7a29 733d
00000360: b286 773d 204b 423c 807f 3cba e0d8 b63c
00000370: e8b2 7fbc ca7d 563d 3c94 0dbd 7c6e 67bd
00000380: ae2f 2b3d f650 683d 8a70 5abd d0fc 97bc
00000390: 8013 273c e05f b43b 4813 4f3d 1c0e c6bc
000003a0: 4852 043c b041 b13b b4a9 76bd 540e 01bd
000003b0: 5263 743d f86a 923c 8edf 2c3d 60c0 7fbd
000003c0: a092 8ebc a00a 3bbd 06ed 49bd 94a4 b0bc
000003d0: 02c2 183d 9eb8 643d 22a7 7e3d e089 343d
000003e0: d6c1 733d e25f 1abd 7453 e03c 28b2 d53c
000003f0: eabf 6b3d f817 9abc 509d 6bbc 70d6 d5bb

fc2.bias f4 [256]
-0.05761469 -0.023862727 0.012170665 -0.015300229 -0.012844741 -0.041874334 0.03969548 0.029434383
-0.056803316 0.03203436 0.030351624 -0.025126897 0.03853105 0.0030933246 -0.029930629 0.021044865
0.034760587 -0.0027010813 0.026961707 -0.030218624 0.032852046 0.04315505 0.04472235 -0.03400311
-0.062015876 -0.0511875 0.037351623 0.020317093 0.01677844 -0.033053555 0.007597871 -0.048525378
-0.05301922 -0.02412951 0.016822241 0.049572147 -0.023638077 -0.006961167 0.021489292 0.012402333
-0.006287709 0.03652467 -0.0072289333 -0.051585034 -0.054241158 -0.04629872 -0.05393827 0.0035752356
0.019795388 -0.02166617 -0.003441058 0.056605466 0.026658945 -0.013293751 0.053506173 0.057494514
0.0027828813 -0.009464644 0.020199232 0.004368983 0.05506715 0.00416445 -0.02515515 -0.013517976
-0.05011078 0.0018157512 0.010633625 -0.055629447 -0.05841858 0.059899546 0.008144699 -0.0024629384
0.04652606 0.052079633 -0.05470887 0.028783388 -0.06012523 -0.05674175 -0.055881277 0.013240911
-0.046526417 -0.007877916 0.057643883 -0.055982627 -0.05035218 -0.021553092 0.020540819 0.017535463
0.019111238 -0.027773127 0.034499437 -0.037287667 -0.0065652654 0.003631696 -0.032574482 0.035019703
-0.008293927 0.03831447 0.014001891 -0.051959112 0.059321493 -0.0019432008 -0.003949493 0.03907673
0.020521738 0.05824902 0.044698954 0.05511897 -0.04676999 -0.032933533 -0.038217925 -0.044930078
0.03126114 -0.05964087 -0.058044307 -0.036281228 -0.016323946 0.012411319 0.034325063 -0.0044191554
-0.030927554 0.050933085 -0.009553805 0.0044989586 0.055735946 -0.0041615367 -0.021582916 0.06131351
-0.055354945 0.043536305 0.03254994 -0.035237633 0.050828412 0.044583492 0.05760686 -0.013851747
-0.030658267 -0.045692816 -0.035281166 0.009904951 0.040321678 -0.01817578 -0.0032366514 0.035539262
0.06049695 -0.05203572 -0.01412797 -0.019378617 0.007230252 -0.05930855 0.0014254153 0.009319074
0.02257216 0.05679457 -0.05153434 0.016233318 -0.054718807 0.02104897 0.029926054 -0.02091685
-0.024822019 -0.045342565 -0.04640697 0.057028368 0.055437088 -0.061182246 -0.00023046881 0.060910642
-0.03307119 0.011407003 0.0016563386 0.038073547 0.009886138 0.0032485873 0.018451452 0.03742943
-0.039011374 -0.0034063905 0.032127626 0.05572769 0.011101462 -0.03977803 -0.03565342 -0.025389545
0.036063418 -0.030292377 0.04190187 0.044124983 -0.00089788437 -0.01880999 0.02906806 0.046226725
-0.04930052 -0.054004118 0.002020672 -0.008959256 -0.05580531 -0.043548465 -0.045362875 -0.05132118
0.006431535 -0.042428836 -0.020127796 0.057665654 0.025354758 -0.018983506 -0.012739755 0.0014907047
-0.004920788 0.05210007 0.046871826 0.016847908 -0.0045069307 -0.014236204 0.034487642 -0.029872164
0.021739028 -0.058110572 -0.05280097 -0.043566197 0.015161544 -0.02232755 0.020603165 -0.015985139
0.03073749 0.025383763 0.023729056 -0.0020991415 -0.044717953 0.01400236 0.048438773 -0.048539028
0.019783191 -0.008777335 0.053233042 0.013235711 -0.031397447 -0.0083665475 -0.00439509 0.054530576
0.007071331 0.006153077 0.013743095 -0.049404524 0.01320482 -0.056523398 0.047234066 0.050495617
0.00043538213 0.030628718 0.037785865 -0.04822652 -0.020935297 -0.05369197 -0.021523915 -0.011634864
00000000: 62fd 6bbd c47b c3bc 7867 473c d0ad 7abc
00000010: c072 52bc 6c84 2bbd ba97 223d 6020 f13c
00000020: 98aa 68bd 7636 033d f8a3 f83c ecd6 cdbc
00000030: bcd2 1d3d 60b9 4a3b 1431 f5bc 4866 ac3c
00000040: 1e61 0e3d a004 31bb ccde dc3c 0c8d f7bc
00000050: de8f 063d 5ac3 303d c82e 373d d846 0bbd
00000060: 5c04 7ebd fca9 51bd 04fe 183d 0870 a63c
00000070: f072 893c 2a63 07bd 90f7 f83b 8cc2 46bd
00000080: ae2a 59bd 40ab c5bc ccce 893c 2a0c 4b3d
00000090: a4a4 c1bc 801a e4bb 500a b03c 2833 4b3c
000000a0: 2009 cebb e49a 153d b0e0 ecbb d44a 53bd
000000b0: fa2b 5ebd baa3 3dbd 60ee 5cbd 804e 6a3b
000000c0: f029 a23c 407d b1bc 6083 61bb 22db 673d
000000d0: dc63 da3c 08ce 59bc 4a29 5b3d 5e7f 6b3d
000000e0: 0061 363b 9811 1bbc dc78 a53c b029 8f3b
000000f0: 188e 613d f075 883b 2c12 cebc 807a 5dbc
00000100: f640 4dbd 80fe ed3a a838 2e3c b4db 63bd
00000110: 5248 6fbd 3a59 753d 5871 053c 4069 21bb
00000120: 1c92 3e3d 7451 553d 6816 60bd 24cb eb3c
00000130: e045 76bd 0a6a 68bd c4e3 64bd 68f0 583c
00000140: 7c92 3ebd 6012 01bc fe1b 6c3d 0a4e 65bd
00000150: 163e 4ebd 1c90 b0bc 3845 a83c 88a6 8f3c
00000160: 2c8f 9c3c 7884 e3bc 484f 0d3d f4ba 18bd
00000170: 7021 d7bb c001 6e3b d26c 05bd d270 0f3d
00000180: 40e3 07bc a2ef 1c3d 3068 653c 14d3 54bd
00000190: 18fb 723d 00b3 feba c06a 81bb ec0e 203d
000001a0: 341d a83c 8696 6e3d 4016 373d 6ec4 613d
000001b0: e491 3fbd 50e5 06bd 668a 1cbd 9a08 38bd
000001c0: ae0b 003d fc49 74bd debf 6dbd a09b 14bd
000001d0: ccb9 85bc d858 4b3c 7098 0c3d 90ce 90bb
000001e0: c85b fdbc 369f 503d 9087 1cbc 006c 933b
000001f0: 604b 643d 805d 88bb a8ce b0bc e023 7b3d
00000200: debb 62bd 2053 323d 1653 053d 5655 10bd
00000210: 7431 503d 2e9d 363d 2cf5 6b3d 70f2 62bc
00000220: 0c27 fbbc 6428 3bbd fc82 10bd 6048 223c
00000230: 5828 253d 60e5 94bc 001e 54bb 9e91 113d
00000240: a6cb 773d 6823 55bd 0079 67bc e8bf 9ebc
00000250: c0eb ec3b 86ed 72bd 00d5 ba3a 08af 183c
00000260: 40e9 b83c 6ca1 683d ac15 53bd bcfb 843c
00000270: d420 60bd e46e ac3c 7c27 f53c d059 abbc
00000280: 8c57 cbbc 20b9 39bd 3c15 3ebd 9496 693d
00000290: 0012 633d 3c9a 7abd 00aa 71b9 707d 793d
000002a0: a875 07bd 70e4 3a3c 8019 d93a 02f3 1b3d
000002b0: 78f9 213c 40e6 543b 8027 973c 9a4f 193d
000002c0: 64ca 1fbd c03d 5fbb 4298 033d b842 643d
000002d0: e8e2 353c 4aee 22bd 5209 12bd bcfd cfbc
000002e0: 3cb7 133d b827 f8bc 4ca1 2b3d 66bc 343d
000002f0: 0060 6bba 6817 9abc 2420 ee3c 3c58 3d3d
00000300: 58ef 49bd 6c33 5dbd 406d 043b d8c9 12bc
00000310: 1c94 64bd e05f 32bd 6cce 39bd 2836 52bd
00000320: a0bf d23b dcc9 2dbd 0ce3 a4bc d232 6c3d
00000330: c8b4 cf3c 4c83 9bbc 68ba 50bc c063 c33a
00000340: 903e a1bb e266 553d acfc 3f3d a004 8a3c
00000350: e0ae 93bb f83e 69bc ea42 0d3d 78b6 f4bc
00000360: 0c16 b23c 5a05 6ebd d445 58bd 7872 32bd
00000370: 2068 783c 44e8 b6bc f8c7 a83c 44f3 82bc
00000380: 30cd fb3c 9cf1 cf3c 7063 c23c c091 09bb
00000390: 2c2a 37bd 286a 653c bc67 463d dcd0 46bd
000003a0: 5c10 a23c d0ce 0fbc e40a 5a3d 98da 583c
000003b0: 9c9a 00bd d813 09bc b004 90bb 745b 5f3d
000003c0: a0b6 e73b c09f c93b b82a 613c 665c 4abd
000003d0: 0859 583c 1485 67bd 8278 413d 7ed4 4e3d
000003e0: 0044 e439 14e9 fa3c 5ac5 1a3d 2c89 45bd
000003f0: 8080 abbc 1cec 5bbd ec52 b0bc 28a0 3ebc

fc3.weight f4 [10, 256]
-0.060708627 0.0026832 -0.03845814 -0.004839584 0.060615443 0.0060180947 0.018911146 -0.050513744
-0.0099623725 -0.025697999 0.055098124 0.015896529 0.0059528947 0.038972825 0.037945308 0.024373315
0.05291464 0.040484793 -0.035893463 0.04658223 -0.03974811 -0.05511032 0.0330443 -0.03213933
0.0017697588 -0.024740085 0.03399437 -0.023250751 0.03568002 0.0023536012 0.053826906 -0.005592875
0.020597897 -0.0055425465 -0.0026854947 -0.018998742 -0.02923578 -0.038694076 0.005516298 -0.02705945
0.05169837 0.0029197857 0.009306945 0.0415724 -0.008050635 -0.054743953 0.018885165 -0.058839813
0.034459546 0.046823688 -0.031825237 -0.02554059 -0.021720856 -0.01729653 0.03239955 0.03574662
0.009012386 0.01087898 -0.02936726 0.02082783 -0.018085182 0.0019866526 -0.062442243 0.013113543
-0.052183628 0.038547553 -0.015562728 -0.0026716143 -0.002368264 -0.008553572 0.028946057 0.036001846
-0.030711725 -0.013237089 0.043980785 -0.037394963 -0.03947798 -0.005324468 0.010685131 0.035308495
-0.042379476 -0.0009723753 0.046718933 0.017427154 0.0458361 0.037429966 -0.051644593 -0.012372337
0.031117857 0.054763593 0.002135247 0.032712586 0.024172775 -0.024692252 0.027608216 0.02439364
0.029875427 -0.010302737 -0.047410198 0.034446783 -0.036924154 0.010635659 0.028236657 0.020096883
-0.008445911 -0.02635952 -0.0462856 0.05186926 -0.057898253 0.015460573 -0.00030923635 -0.044302158
0.028300606 -0.02720464 0.047870956 -0.044264965 0.049094647 0.048743695 -0.011763118 0.046109587
0.0012833402 -0.0009460151 -0.029469624 0.015596136 0.027682155 0.055799544 0.039988518 -0.041925125
-0.060385354 -0.027988717 0.024286889 0.038732283 0.023730054 -0.05807618 0.04629553 -0.039987177
0.012571253 -0.051074237 -0.03326448 0.05398708 0.056084223 0.053292938 -0.009634465 0.038675234
-0.017955542 0.02102027 0.00503885 0.009908989 0.023297906 0.02412887 0.04367683 0.0382559
0.061585926 -0.006761931 -0.04357353 -0.053634696 -0.007953964 -0.01406192 0.05563292 0.041583486
0.0043199062 -0.0544753 0.004357457 -0.04287593 -0.008915767 0.041740708 -0.051163323 0.039525673
-0.05946829 0.036985792 0.00208541 0.052887715 -0.0114016235 -0.015643448 -0.05708772 -0.047778018
-0.010811992 0.0065650865 -0.055454 -0.017261341 0.027454823 -0.015012823 -0.0037172213 -0.050520763
0.021327503 -0.001868479 -0.027382977 -0.041688018 -0.056154303 0.050364427 0.012150452 0.029642515
-0.05709113 0.03562346 0.04935974 0.021003202 -0.01845894 0.025275879 -0.061976634 0.056550734
-0.0421272 -0.006471075 -0.03841065 -0.041180074 -0.042318776 0.03990899 -0.04173795 -0.03737568
0.006115958 -0.05418545 0.053918533 0.037504338 0.0026502088 -0.0056764036 0.0020330548 0.027776375
-0.022286557 0.050544433 -0.036126845 -0.0064823553 -0.044391192 0.06249339 -0.050130375 -0.012899622
0.03337343 0.060574897 0.025699176 -0.012321435 -0.060884327 -0.036952183 0.0395647 -0.02898506
0.03880474 -0.018159524 0.033129856 0.0048327595 0.009715915 -0.019947052 -0.019676156 0.00809595
-0.030413106 0.047411725 -0.045193665 0.03892219 -0.011044264 -0.04742088 0.051241823 0.056275696
0.010758184 -0.051118307 0.061054513 0.040259533 0.04899872 -0.03471846 0.021114953 0.013251677
00000000: 9ca9 78bd a0d8 2f3b 4886 1dbd 6095 9ebb
00000010: e647 783d 7033 c53b 8ceb 9a3c 80e7 4ebd
00000020: 3839 23bc 9c84 d2bc 92ae 613d 7039 823c
00000030: 8010 c33b f8a1 1f3d 8a6c 1b3d 8caa c73c
00000040: 06bd 583d 62d3 253d 0605 13bd 02cd 3e3d
00000050: eace 22bd 5cbb 61bd 7659 073d 88a4 03bd
00000060: 40f7 e73a b8ab cabc ae3d 0b3d 5c78 bebc
00000070: 3625 123d e03e 1a3b 9a79 5c3d 7044 b7bb
00000080: ecbc a83c 409e b5bb 20ff 2fbb 40a3 9bbc
00000090: e07f efbc ae7d 1ebd 10c2 b43b c8ab ddbc
000000a0: acc1 533d e059 3f3b 287c 183c d247 2a3d
000000b0: d0e6 03bc 323b 60bd 10b5 9a3c 0402 71bd
000000c0: 7425 0d3d 32ca 3f3d 2e5b 02bd 803a d1bc
000000d0: f0ef b1bc 74b1 8dbc 64b5 043d 0c6b 123d
000000e0: b0a8 133c c03d 323c 9c93 f0bc 209f aa3c
000000f0: 6027 94bc 8032 023b 70c3 7fbd 30da 563c
00000100: 80be 55bd 0ae4 1d3d d0fa 7ebc 4016 2fbb
00000110: e034 1bbb 4824 0cbc 4820 ed3c ac76 133d
00000120: 2897 fbbc 60e0 58bc 3225 343d 762b 19bd
00000130: aab3 21bd e078 aebb b010 2f3c a49f 103d
00000140: 1a96 2dbd 00e7 7eba 5a5c 3f3d 64c3 8e3c
00000150: a2be 3b3d 2a50 193d 4889 53bd 58b5 4abc
00000160: e0ea fe3c ca4f 603d 80ef 0b3b a2fd 053d
00000170: fc05 c63c 6847 cabc a02a e23c 2cd5 c73c
00000180: 50bd f43c d0cc 28bc 3231 42bd 1218 0d3d
00000190: c83d 17bd 3041 2e3c 9050 e73c 38a2 a43c
000001a0: b860 0abc ecef d7bc f895 3dbd dc74 543d
000001b0: b826 6dbd 584e 7d3c 0021 a2b9 2e76 35bd
000001c0: acd6 e73c 44dc debc 5614 443d 2e4f 35bd
000001d0: 7817 493d 78a7 473d 18ba 40bc 68dd 3c3d
000001e0: c035 a83a 00fe 77ba 486a f1bc f086 7f3c
000001f0: b0c5 e23c 108e 643d 00cb 233d aeb9 2bbd
00000200: a256 77bd 9848 e5bc 4cf5 c63c bea5 1e3d
00000210: 8865 c23c 4ae1 6dbd 62a0 3d3d 98c9 23bd
00000220: a8f7 4d3c 3833 51bd 5640 08bd 8e21 5d3d
00000230: 92b8 653d b249 5a3d e0d9 1dbc ec69 1e3d
00000240: 8017 93bc b432 ac3c f01c a53b 5059 223c
00000250: 40db be3c e8a9 c53c 7ae6 323d 38b2 1c3d
00000260: 8641 7c3d 3093 ddbb 287a 32bd 0eb0 5bbd
00000270: 5851 02bc f863 66bc 58df 633d 7253 2a3d
00000280: 008e 8d3b 7e21 5fbd 00c9 8e3b ac9e 2fbd
00000290: 7013 12bc 4ef8 2a3d a290 51bd ace5 213d
000002a0: 0695 73bd 6a7e 173d 60ab 083b caa0 583d
000002b0: e0cd 3abc b026 80bc d0d4 69bd e2b2 43bd
000002c0: c824 31bc f01f d73b bc23 63bd a867 8dbc
000002d0: f0e8 e03c 58f8 75bc a09c 73bb dcee 4ebd
000002e0: 04b7 ae3c c0e7 f4ba 4452 e0bc 0ec1 2abd
000002f0: 0e02 66bd ee4a 4e3d b012 473c dcd4 f23c
00000300: 64d8 69bd e8e9 113d 702d 4a3d e80e ac3c
00000310: 3437 97bc 5c0f cf3c 36db 7dbd bea1 673d
00000320: 928d 2cbd 500b d4bb 7c54 1dbd 70ac 28bd
00000330: 7456 2dbd 9c77 233d 6af5 2abd 3e17 19bd
00000340: 6068 c83b 90f1 5dbd aed9 5c3d 269e 193d
00000350: 20af 2d3b 2001 babb 003d 053b 488b e33c
00000360: 4c92 b6bc ae07 4f3d bef9 13bd f069 d4bb
00000370: 8ad3 35bd 12f9 7f3d 8255 4dbd f058 53bc
00000380: 94b2 083d 621d 783d 1487 d23c d8df 49bc
00000390: d861 79bd 2c5b 17bd 980e 223d 1472 edbc
000003a0: b8f1 1e3d 48c3 94bc 2cb3 073d 205c 9e3b
000003b0: 802f 1f3c 0068 a3bc e42f a1bc e0a4 043c
000003c0: e824 f9bc cc32 423d fe1c 39bd e06c 1f3d
000003d0: 00f3 34bc 663c 42bd f2e2 513d 5881 663d
000003e0: 1843 303c 6e61 51bd 4c14 7a3d 2ee7 243d
000003f0: e2b2 483d f234 0ebd 44f9 ac3c 901d 593c

fc3.bias f4 [10]
-0.059553817 0.036835536 0.01841896 -0.026593745 0.044771038 0.0054240525 -0.03086751 0.056928314
-0.027443975 0.0047476664
00000000: b4ee 73bd dce0 163d 5ce3 963c 20db d9bc
00000010: d661 373d 40bc b13b dcdd fcbc aa2d 693d
00000020: 30d2 e0bc 5092 9b3b
